CIS522/test.pth (torch, 150935 bytes, 6 tensors)

0.weight f4 [128, 256]
0	0xbd4f35b8	-0.05058834
1	0xbd1c43cc	-0.038150594
2	0x3a558980	0.0008145794
3	0xbce44458	-0.02786462
4	0xbcfb26f4	-0.030658223
5	0x3d185250	0.037187874
6	0x3d0e6476	0.034763776
7	0xbb6d1780	-0.0036177337
8	0x3c98f54c	0.018671654
9	0xbb1feb20	-0.002440162
10	0xbca4d364	-0.02012033
11	0x3d609fec	0.054840013
12	0x3c6a8c70	0.0143157095
13	0xbc8aed2c	-0.016958795
14	0x3c20d500	0.009816408
15	0x3d56b796	0.052421175
16	0x3d008bf4	0.03138347
17	0x3ca7bc80	0.020475626
18	0xbcc37d68	-0.02386351
19	0x3d0a1d66	0.033719443
20	0x3c4709f8	0.012148373
21	0x3cd82150	0.026383072
22	0xbc83eb30	-0.016103357
23	0x3cc61c40	0.024183393
24	0xbc94e12c	-0.018173777
25	0xbb5c47a0	-0.0033612028
26	0x3d1d5e6c	0.038420126
27	0xbd5f9ad2	-0.054591008
28	0xbd651024	-0.055923596
29	0x3d323ff2	0.043518014
30	0x3d0d901a	0.034561254
31	0x3c98e164	0.018662162
32	0x3d38a25a	0.045076706
33	0xbcad6b40	-0.021169305
34	0x3d067996	0.032830797
35	0x3d1d41dc	0.038392887
36	0xbd1a7976	-0.03771349
37	0x3cc67d70	0.024229735
38	0xbba23df0	-0.004951231
39	0x3d487522	0.04893983
40	0x3d440d24	0.047864094
41	0xbcc62174	-0.024185874
42	0x3d332622	0.04373754
43	0x3cc5b5e8	0.024134591
44	0xbd446436	-0.04794713
45	0x3cec223c	0.028824918
46	0xbc97fc88	-0.018553033
47	0x3d0b276e	0.03397315
48	0xbd7e9756	-0.062156044
49	0x3c80fd14	0.015745677
50	0x3d1d42ac	0.03839366
51	0xbd6911f0	-0.056901872
52	0x3d6c2e14	0.05766113
53	0xbd30528c	-0.043047473
54	0xbc223e68	-0.009902574
55	0xbccb9214	-0.024849929
56	0x3d516e92	0.05113084
57	0x3d7c1f9c	0.061553583
58	0x3cb88984	0.02252651
59	0x3d5ceb34	0.053935245
60	0xbd16486c	-0.03669016
61	0x3d0db188	0.034593135
62	0xbce50808	-0.027957931
63	0xbc32aa90	-0.010904923
64	0xbc305750	-0.010763004
65	0xbcad4ed0	-0.021155745
66	0xbca1c404	-0.019746788
67	0x3d78ddae	0.060758285
68	0xbd160936	-0.036629878
69	0xbd051f46	-0.032500528
70	0xbd324c20	-0.04352963
71	0xbcbc13e4	-0.022958703
72	0x3d16ca78	0.036814183
73	0xbd4ffe56	-0.050779663
74	0xbcc54ef8	-0.024085507
75	0x3d62a572	0.055333562
76	0xbd0319e4	-0.032007113
77	0xbd5b1980	-0.053491116
78	0x3bff7aa0	0.0077966005
79	0x3ccb68b4	0.0248302
80	0xbc9d8830	-0.019229978
81	0xbd4c116e	-0.04982131
82	0x3d42f356	0.047595344
83	0xbd7ce1d8	-0.06173882
84	0x3cf0b308	0.029382244
85	0x3c8cec84	0.017202623
86	0xbb8cb3a0	-0.004293874
87	0x3cd42754	0.02589766
88	0xbcffeb6c	-0.031240188
89	0xbd41337e	-0.047168247
90	0x3aefd0c0	0.0018296465
91	0xbccc92a8	-0.024972275
92	0x3d662f10	0.056197226
93	0xbd2a1dd0	-0.041532338
94	0x3b09f0a0	0.0021047965
95	0x3bdae500	0.006680131
96	0x3cd3fba0	0.02587682
97	0xbce38c78	-0.027776942
98	0xbd29a770	-0.041419446
99	0x3d540e6e	0.051771574
100	0x3d42ab3e	0.04752659
101	0xbd5c5ae2	-0.05379761
102	0xbc7bf598	-0.015378378
103	0xbca6645c	-0.020311527
104	0x3bef6ac0	0.0073064268
105	0xbd61a7a6	-0.055091523
106	0xbd645be4	-0.055751696
107	0xbbceabd0	-0.0063071027
108	0x3d624f5c	0.055251464
109	0xbd1a639e	-0.03769266
110	0xbd1c6734	-0.03818436
111	0x3ca0c518	0.019625232
112	0xbc9de714	-0.019275226
113	0xbd15e128	-0.03659168
114	0xbd1b0d00	-0.037854195
115	0x3d4b2f66	0.04960575
116	0xbd380d4a	-0.04493455
117	0xbc4202d8	-0.011841498
118	0x3d7e8cfe	0.06214618
119	0xbd1b79d6	-0.03795799
120	0xbc972074	-0.018448092
121	0xb9dd1400	-0.00042167306
122	0x3d39157e	0.045186512
123	0xbcf2fe80	-0.02966237
124	0x3d204fd6	0.039138637
125	0xbca7aa18	-0.02046685
126	0xbd6af820	-0.057365537
127	0xbca4a63c	-0.020098798
128	0x3b614240	0.0034371763
129	0xbd217886	-0.03942158
130	0x3c842d94	0.016135015
131	0x3c5fdf20	0.013664037
132	0xbd6d99b6	-0.05800792
133	0x3ccce838	0.025013074
134	0x3c24fab0	0.010069534
135	0xbc2d4bb0	-0.010577127
136	0x3c83d1d8	0.016091272
137	0x3c378cd0	0.011203006
138	0x3d263efa	0.040587403
139	0xbbc74ea0	-0.006082371
140	0xbc5b8208	-0.013397701
141	0xbd522dea	-0.05131332
142	0x3d1932fc	0.037402138
143	0x3aeb0800	0.0017931461
144	0xbc2aa6e8	-0.01041577
145	0xbd265c58	-0.04061541
146	0x3cad8660	0.021182239
147	0xbd6e3de6	-0.0581645
148	0xbcd609a0	-0.026127636
149	0xbcc1197c	-0.023571722
150	0xbcc72dc0	-0.024313807
151	0x3cd650f4	0.026161648
152	0x3d364994	0.044503763
153	0x3c67b3b0	0.014141962
154	0xbd1cc9a0	-0.038278222
155	0xbd54d482	-0.051960476
156	0x3c018058	0.007904135
157	0xb89f4c00	-7.595867e-05
158	0x3d39c3d6	0.04535278
159	0x3cb4bb38	0.02206193
160	0x3d471b84	0.048610225
161	0x3d04a86e	0.03238719
162	0x3d7a8e12	0.061170645
163	0xbccc67e8	-0.02495189
164	0xbd3c8f48	-0.04603508
165	0xbc986d14	-0.0186067
166	0xbd313b3c	-0.04326938
167	0x3b61ca40	0.0034452826
168	0x3d1186be	0.03552889
169	0xbd66e554	-0.056371048
170	0xbd77447e	-0.060368054
171	0xbcad664c	-0.021166943
172	0xbc291998	-0.010321043
173	0x3a5dfa00	0.0008467734
174	0xbcf7f58c	-0.030268453
175	0x3d694902	0.05695439
176	0x3b1ffcc0	0.0024412125
177	0xbd3dc240	-0.04632783
178	0xbd181fbe	-0.037139647
179	0xbd062dac	-0.0327584
180	0x3d3076b4	0.043081954
181	0xbd248e92	-0.04017503
182	0x3d74830e	0.059695296
183	0x3d2321e4	0.039827242
184	0x3b8d67d0	0.004315354
185	0x3c965180	0.01834941
186	0x3d5e08ba	0.05420754
187	0xbd73233a	-0.059359767
188	0xbd0f099c	-0.034921274
189	0x3bdf5640	0.0068157017
190	0x3cadaea8	0.021201447
191	0xbc951608	-0.018198982
192	0x3be94fc0	0.0071201026
193	0xbc172080	-0.009224057
194	0x3d0eccc0	0.034863234
195	0x3d73286a	0.059364714
196	0xbcbcf87c	-0.023067705
197	0xbbb8a2b0	-0.0056346282
198	0xbd5b6d02	-0.053570755
199	0xbbcbb5b0	-0.006216727
200	0xbd5c0d86	-0.053723834
201	0xb7126000	-8.72463e-06
202	0x3c932d70	0.017966002
203	0x3cafc478	0.021455988
204	0x3cfd41b4	0.030915119
205	0xbd0fd92a	-0.035119213
206	0x3cf732dc	0.030175619
207	0xbcd71d78	-0.026259169
208	0x3b054760	0.0020336732
209	0xbc43c1c8	-0.0119480565
210	0xbcca197c	-0.024670355
211	0x3c153978	0.00910794
212	0x3d1bb9a0	0.038018823
213	0x3cd5cb60	0.026097953
214	0xbd443068	-0.047897726
215	0x3c101d28	0.008796014
216	0x3d20bda6	0.039243363
217	0xbd401af8	-0.04690072
218	0x3d23de5e	0.040006988
219	0xbcdf7838	-0.027279004
220	0x3d1d08e8	0.03833857
221	0x3d33739e	0.043811433
222	0x3d2fbe40	0.042906046
223	0xbd6ffebc	-0.058592543
224	0x3d4317f6	0.047630273
225	0x3d60edfa	0.054914452
226	0x3b78eb80	0.0037982166
227	0xbc8988c4	-0.016788848
228	0xbc2565f0	-0.010095105
229	0xbd46bf86	-0.048522495
230	0x3b664760	0.0035137758
231	0x3a825e40	0.0009946302
232	0x3d47c288	0.048769504
233	0xbd200df2	-0.0390758
234	0x3b08f120	0.0020895675
235	0xbd186070	-0.037201345
236	0xbd3bc19c	-0.045838937
237	0xbcf064e8	-0.02934499
238	0xbd492638	-0.049108714
239	0x3d5f68c4	0.05454327
240	0xbd298a34	-0.041391566
241	0xbc9c0f18	-0.019050166
242	0x3c663c60	0.01405248
243	0xbd2707ea	-0.04077903
244	0xbc07b760	-0.008283466
245	0xbd1bd3ce	-0.03804379
246	0x3b06b380	0.0020553768
247	0xbd5d2b4e	-0.053996377
248	0xbcc466a0	-0.023974717
249	0x3d6c5c86	0.057705425
250	0x3b4735e0	0.0030397102
251	0x3d4c67c4	0.049903646
252	0xbc93b480	-0.018030405
253	0x3d6f6836	0.058448993
254	0x3d03ee8e	0.032209925
255	0xbb87e290	-0.0041468814

0.bias f4 [128]
0	0x3bd0db80	0.0063738227
1	0xbc5323a0	-0.012886912
2	0xbcc3b33c	-0.023889177
3	0xbd62f33e	-0.055407755
4	0xba775e80	-0.0009436384
5	0x3d0ae0c0	0.033905745
6	0x3d038ce0	0.03211677
7	0xbd5d0486	-0.053959392
8	0x3a17a180	0.0005784258
9	0xbd2f8f16	-0.042861067
10	0xbbd7a440	-0.0065808594
11	0x3bc2a6e0	0.005940303
12	0x3d2ea1b8	0.042634696
13	0xbcad3814	-0.021144904
14	0xbd32164c	-0.043478295
15	0xbd1422a6	-0.036165856
16	0xbca3a8c8	-0.019977942
17	0xbcdddfcc	-0.027084254
18	0xbd12de12	-0.035856314
19	0x3d5ea302	0.054354675
20	0xbd4c80b4	-0.04992743
21	0x3d530afa	0.05152414
22	0xbb0efcc0	-0.0021818131
23	0x3d0d877a	0.03455303
24	0x3cd64c60	0.026159465
25	0xbd2e16fc	-0.04250239
26	0x3d77d5e4	0.060506716
27	0x3d3a1a3e	0.045435183
28	0xbcc6935c	-0.024240188
29	0xbc480380	-0.012207866
30	0xbc41dab8	-0.011831932
31	0xbd747064	-0.059677497
32	0xbd58e50a	-0.052952804
33	0x3d24eea0	0.040266633
34	0xbd2c128e	-0.042009883
35	0x3cf35af4	0.029706456
36	0x3bb3ff30	0.005493067
37	0xbc5e1e40	-0.013557017
38	0xbc4f8250	-0.012665346
39	0xbc0b1078	-0.008487813
40	0x3cf1c41c	0.029512458
41	0xbc4e5cb0	-0.012595341
42	0x3d667a02	0.0562687
43	0x3ce2bcb8	0.027677879
44	0x3d015a62	0.031580336
45	0x3d182ac8	0.037150174
46	0x3b9f8ba0	0.0048689395
47	0x3c024e80	0.007953286
48	0x3d357184	0.04429771
49	0x3c128e20	0.008945018
50	0x3d3eae2c	0.046552822
51	0xbcc02924	-0.023457117
52	0x3c2feed0	0.01073809
53	0x3d7cfd78	0.061765164
54	0x3cd96af0	0.02654025
55	0x3ae331c0	0.0017333552
56	0x3d142ac0	0.036173582
57	0x3d44efde	0.048080318
58	0x3cdb33c4	0.026758082
59	0x3c77ea98	0.015131615
60	0xbc17afd8	-0.009258233
61	0xbd15a468	-0.036533743
62	0xbc8f7634	-0.017512418
63	0x3cd6b61c	0.026209883
64	0x3d51a420	0.051181912
65	0x398d5900	0.00026959926
66	0x3d2b1670	0.041769445
67	0xbc151698	-0.009099625
68	0xbd255396	-0.040362917
69	0xbd36a0f0	-0.044587076
70	0x3d1c4f76	0.038161717
71	0xbd1babae	-0.038005523
72	0xba896e80	-0.0010485202
73	0xbd66b448	-0.056324273
74	0xbd12c928	-0.03583637
75	0xbd7b97ec	-0.06142418
76	0x3c25fd08	0.010131128
77	0xbd79dfc0	-0.0610044
78	0xbcca1e0c	-0.02467253
79	0x3bb9da90	0.0056718066
80	0x3d127d6a	0.035764135
81	0x3c491138	0.012272172
82	0x3cd8e7cc	0.026477717
83	0x3d02c410	0.03192526
84	0x3d5a6e74	0.053327993
85	0xbc36fd70	-0.011168823
86	0xbd69c3f6	-0.05707165
87	0xbd7feb82	-0.062480457
88	0x3d6b1dd0	0.05740148
89	0x3d5349c0	0.051584005
90	0x3d3a5388	0.045489818
91	0x3d5684d2	0.05237276
92	0xbd7a755c	-0.06114708
93	0x3d4ec764	0.050483122
94	0xbd168c70	-0.036755025
95	0xbd20e104	-0.03927709
96	0x3d00223c	0.03128265
97	0xbba65660	-0.0050762147
98	0xbd1cbc5c	-0.03826557
99	0xbd071750	-0.032981217
100	0xbd535aaa	-0.051600136
101	0xbb98aa30	-0.00465896
102	0xbd533d10	-0.051571906
103	0x3cf32964	0.029682823
104	0x3d4f1392	0.050555773
105	0xbd392ea6	-0.045210503
106	0xbcb15ce0	-0.021650732
107	0x3d721306	0.059100173
108	0x3d71c26c	0.059023306
109	0x3d66dbfc	0.056362137
110	0xbca21de4	-0.019789644
111	0xbd0ba1ec	-0.034089968
112	0xbd00d2bc	-0.031450972
113	0xbd1fbefa	-0.03900049
114	0xbad38c40	-0.001613982
115	0x3bb7ae00	0.005605459
116	0x3d1165f6	0.03549763
117	0x3cb13b80	0.021634817
118	0x3d7554fa	0.059895493
119	0xbb257e80	-0.0025252402
120	0xbc949fdc	-0.018142633
121	0x3b61c020	0.003444679
122	0xbc12c3a8	-0.008957781
123	0xbc83ae80	-0.016074419
124	0xbcb60ff4	-0.022224404
125	0x3cff6604	0.031176575
126	0xbcdc4f2c	-0.02689322
127	0x3c80fbc8	0.015745059

2.weight f4 [32, 128]
0	0xbc67d598	-0.014150046
1	0xbda62f57	-0.08114498
2	0x3d9919bf	0.07475614
3	0x3d50df96	0.05099448
4	0x3bed84a0	0.007248476
5	0x3d7f35ca	0.062307157
6	0xbc5ca988	-0.013468154
7	0xbd93cd96	-0.07216947
8	0xbbf4d770	-0.007471971
9	0x3d8f0b23	0.06984546
10	0xbd201ad0	-0.03908807
11	0xbdb070e2	-0.08615281
12	0xbc23b950	-0.009992912
13	0xbc822ce0	-0.015890539
14	0x3d99590d	0.07487688
15	0x3d2cf406	0.042224906
16	0x3d27794a	0.040887155
17	0xbc8e9030	-0.017402738
18	0xbda9d1ad	-0.082919456
19	0xbd94a511	-0.072580464
20	0x3d0809c2	0.03321243
21	0x3bb36750	0.0054749623
22	0x3dabbb03	0.08385279
23	0x3cf7c160	0.030243576
24	0xbd440aa0	-0.047861695
25	0x3d183eda	0.037169315
26	0x3bc8a6b0	0.0061233863
27	0x3cdf7700	0.027278423
28	0x3da5b9a5	0.080920495
29	0x3d24586e	0.040123396
30	0x3d84a7c3	0.064773105
31	0xbb4a9f00	-0.0030917525
32	0x3dae7ebd	0.08520267
33	0x3d3faf2a	0.04679791
34	0xbd915350	-0.07095969
35	0x3d4af566	0.049550436
36	0xbd473b5b	-0.04864059
37	0xbd9bd449	-0.076088496
38	0x3b2428a0	0.0025048628
39	0x3d91ac2d	0.07112918
40	0x3d61d11e	0.05513107
41	0x3d8589b1	0.06520403
42	0x3d2c7002	0.042099006
43	0x3cdf459c	0.027254872
44	0x3dae63f1	0.08515156
45	0xbd5b6885	-0.053566474
46	0x3d9bf963	0.07615926
47	0x3d89b6f5	0.067243494
48	0x3db09b83	0.086234115
49	0x3db2b075	0.08725063
50	0x3d56915a	0.05238471
51	0xbd91216e	-0.07086454
52	0xbc2b7138	-0.010464005
53	0xbcf850b4	-0.03031192
54	0xbc4d2e18	-0.012523197
55	0xbd2dbbc4	-0.042415395
56	0xbd9e2b7a	-0.07723136
57	0xbd1e6425	-0.038669724
58	0xbd17365a	-0.036917068
59	0x3d24cdd6	0.040235363
60	0xbd334d76	-0.043775044
61	0x3da1734b	0.078833185
62	0x3da40dd3	0.08010449
63	0xbd5bd671	-0.053671304
64	0xbd5023b6	-0.050815307
65	0xbcdd1320	-0.026986659
66	0xbca74650	-0.02041927
67	0xbd1b4309	-0.037905727
68	0xba9e98c0	-0.0012099966
69	0x3cdb58d8	0.026775762
70	0xbcb514b4	-0.022104599
71	0xbd2ad4b5	-0.04170676
72	0x3831e000	4.2408705e-05
73	0xbd71d905	-0.059044857
74	0xbda8542d	-0.0821918
75	0x3d227442	0.039661653
76	0xbd375ee5	-0.044768233
77	0x3c589350	0.013218716
78	0x3d1fd496	0.039021097
79	0x3db434ad	0.087991096
80	0xbd9a4e1b	-0.07534429
81	0xbd99e554	-0.07514444
82	0xbd8e80ba	-0.069581464
83	0xbd4150b9	-0.047196124
84	0xbd2c478e	-0.042060427
85	0x3d2d9dfa	0.042386986
86	0xbc705398	-0.014668368
87	0x3d00e26c	0.031465933
88	0xbd8196aa	-0.06327565
89	0x3da4506f	0.08023154
90	0x3cbd5ab0	0.023114532
91	0xbda62ad7	-0.0811364
92	0x3ca67280	0.02031827
93	0xbcdf47b4	-0.02725587
94	0xbd4bd5b2	-0.049764343
95	0xbd04409b	-0.032288175
96	0x3cfdf974	0.031002738
97	0xbd60eca8	-0.054913193
98	0x3d87bfdb	0.066283904
99	0xbce5fdd8	-0.028075144
100	0x3cf1fe50	0.029540211
101	0x3d00c118	0.03143415
102	0xbdab6765	-0.0836933
103	0x3d8f72eb	0.07004341
104	0x3d7d8952	0.061898537
105	0x3c9c2b28	0.019063547
106	0x3db44a7b	0.088032685
107	0xbc1ac940	-0.009447396
108	0xbd91f598	-0.071269214
109	0xbda619ef	-0.08110415
110	0x3d844831	0.06459082
111	0x3db05b33	0.08611145
112	0xbd89d6c6	-0.06730418
113	0xbd3f3ff3	-0.046691846
114	0xbd52fd6c	-0.051511213
115	0x3d0ce382	0.034396656
116	0x3cd3db1c	0.025861315
117	0x3d80d09b	0.06289788
118	0xbd672a65	-0.056436915
119	0x3d1b0d2e	0.037854366
120	0xbd5887bf	-0.052863833
121	0x3da862c5	0.08221964
122	0xbd9fcfce	-0.078033075
123	0xbd647936	-0.05577966
124	0xbcad74c8	-0.02117385
125	0x3d9ff623	0.07810619
126	0xbdadc15a	-0.084841445
127	0x3d4e4faa	0.050368942
128	0x3c038e58	0.008029543
129	0xbd88b5ac	-0.06675276
130	0xbc581788	-0.013189204
131	0x3d06c60c	0.032903716
132	0x3c74cd90	0.014941588
133	0xbd322474	-0.043491796
134	0x3d5a08be	0.053230993
135	0x3cb7d644	0.022441037
136	0x3d0971be	0.03355574
137	0xbbc65bd0	-0.0060534254
138	0x3db040f3	0.08606138
139	0xbcbab568	-0.02279158
140	0x3d92649d	0.07148097
141	0xbce0704a	-0.027397294
142	0x3d2914fa	0.04127977
143	0x3d60df32	0.054900356
144	0x3d25d5c2	0.04048706
145	0x3cac9ca8	0.021070793
146	0xbcb87344	-0.0225159
147	0x3a432e80	0.00074455887
148	0xbd0d49d1	-0.034494225
149	0x3c231700	0.009954214
150	0xbd50c5f2	-0.050970025
151	0xbdb3072d	-0.08741603
152	0xbda965a6	-0.08271341
153	0x3c34c290	0.011032715
154	0xbc746c00	-0.014918327
155	0x3d91cd89	0.07119281
156	0x3d117a36	0.03551694
157	0x3d6414ea	0.055684008
158	0xbd563e7e	-0.05230569
159	0xbca2be6c	-0.01986619
160	0xbd6f9164	-0.058488265
161	0x3d4422d6	0.047884785
162	0xbdb4f871	-0.08836449
163	0x3d538ffe	0.051650994
164	0x3d2945de	0.041326396
165	0xbd62a551	-0.05533344
166	0xbce85f9c	-0.028365903
167	0xbdaacaf0	-0.083394885
168	0x3d2c9a36	0.042139255
169	0x3ca356c4	0.019938834
170	0x3dacb89b	0.08433648
171	0x3d33e1a6	0.043916367
172	0xbdad1225	-0.084507264
173	0x3d9e464b	0.07728251
174	0x3d854045	0.06506399
175	0xbd3da76c	-0.046302244
176	0xbd855fcd	-0.06512413
177	0x3d07162e	0.032980137
178	0x3d3f3f16	0.046691023
179	0xbc15c510	-0.009141222
180	0xbcc52374	-0.024064757
181	0xbd0063ba	-0.031345107
182	0x3d97e65d	0.07416985
183	0x3d35db0e	0.04439836
184	0xbd72b248	-0.059252053
185	0x3d45a81a	0.048256017
186	0xbcf7a23e	-0.03022873
187	0x3c535f90	0.012901202
188	0xbd8dbd9c	-0.06920931
189	0x3d0268ca	0.031838216
190	0x3c9b8e50	0.018988758
191	0xbd5dfb58	-0.05419478
192	0xbcfeb5da	-0.031092573
193	0xbcac1774	-0.021007277
194	0xbd82dc4a	-0.06389673
195	0xbce6dd3e	-0.028181668
196	0x3db4b221	0.08823038
197	0xbd84fde0	-0.06493735
198	0xbd824a37	-0.063618116
199	0xbdaba8ad	-0.08381782
200	0xbd037eca	-0.032103337
201	0xbd447273	-0.04796071
202	0x3ca1015c	0.019653969
203	0xbd974e4e	-0.07387982
204	0x3d536f5a	0.051619865
205	0x3b405140	0.0029345304
206	0x3c362e48	0.011119433
207	0x3d4086ba	0.047003485
208	0xbd290985	-0.041268844
209	0xbd0b640b	-0.034030955
210	0xbd91d49e	-0.07120632
211	0x3cb7b4c8	0.02242507
212	0xbb351a80	-0.0027634203
213	0x3cd658c8	0.026165381
214	0x3d9eecd1	0.07760013
215	0x3c069fd0	0.008216813
216	0xbd1e3a39	-0.038629744
217	0x3d076836	0.033058368
218	0xbaec3380	-0.0018020719
219	0xbcf77a28	-0.030209616
220	0x3dacb881	0.08433629
221	0x3d7bc06a	0.061462797
222	0xbd730b14	-0.059336737
223	0x3d763466	0.060108565
224	0xbdb449b8	-0.08803123
225	0xbd093905	-0.033501644
226	0xbd7e2178	-0.062043637
227	0x3ceee6c4	0.029162772
228	0x3c3aebf0	0.011408791
229	0xbcdfa5d0	-0.027300745
230	0xbc419498	-0.011815213
231	0x3cca5818	0.02470021
232	0x3d924975	0.07142917
233	0xbd71e9ac	-0.059060737
234	0xba0f7100	-0.00054718554
235	0x3ad4be80	0.001623109
236	0xbcb12140	-0.0216223
237	0xbd4c4667	-0.04987183
238	0x3bbcb6a0	0.0057590753
239	0x3d970317	0.07373636
240	0xbd1ea2fd	-0.038729656
241	0xbd212198	-0.039338678
242	0x3d3d161a	0.046163656
243	0xbda8d4bb	-0.082437
244	0xbd8ae7a3	-0.067824624
245	0xbcc25c3c	-0.023725621
246	0xbda4d634	-0.080486685
247	0x3cb2ce88	0.021826997
248	0x3d959e83	0.07305624
249	0x3ccc7ab8	0.02496086
250	0xbd7aad8a	-0.061200656
251	0xbcdd0254	-0.02697865
252	0x3d8d0481	0.06885625
253	0x3d552d86	0.052045368
254	0xbcdd8164	-0.027039237
255	0x3d9091ff	0.070590965

2.bias f4 [32]
0	0xbda0b1a9	-0.07846386
1	0xbc8a7a24	-0.016903944
2	0xbd779eda	-0.060454227
3	0x3cda5684	0.026652582
4	0xbda19077	-0.078888826
5	0x3b560d40	0.0032661706
6	0x3d1c0586	0.038091205
7	0xbd50fcd9	-0.051022384
8	0xbd5b84ef	-0.053593572
9	0xbb573520	-0.0032838061
10	0xbda4c29d	-0.08044932
11	0xbd5fa163	-0.05459727
12	0x3d3ba792	0.045814104
13	0x3cfc1728	0.03077276
14	0xbcc4cdc8	-0.024023905
15	0xb9550400	-0.00020314753
16	0x3a8cc7c0	0.0010740682
17	0x3be068b0	0.006848417
18	0xbc4dabf8	-0.012553208
19	0x3d0df4ac	0.034657165
20	0x3ca99aa8	0.020703629
21	0x3c1e3270	0.00965558
22	0xbb9a7b00	-0.00471437
23	0x3d1bc626	0.038030766
24	0xbdb0b737	-0.086286955
25	0x3d2b1896	0.041771494
26	0x3d8a42f3	0.06751051
27	0x3bcac5e0	0.0061881393
28	0xbd8578d4	-0.06517187
29	0xbd7da6a2	-0.06192649
30	0x3c907814	0.017635383
31	0xbd801441	-0.06253863

4.weight f4 [8, 32]
0	0xbd000e1c	-0.031263456
1	0xbd0482f0	-0.032351434
2	0xbddec555	-0.10877482
3	0xbccfc310	-0.025361568
4	0xbe29bb08	-0.16575253
5	0x3d47009c	0.048584566
6	0x3d04a190	0.03238064
7	0xbd6c1d02	-0.05764485
8	0x3e1cf3e9	0.1532742
9	0x3d6ce260	0.057833076
10	0xbdc48985	-0.09596542
11	0xbe0fde35	-0.14049609
12	0xbc890fc0	-0.016731143
13	0x3cb43228	0.021996573
14	0x3e030c8f	0.1279776
15	0x3dac157a	0.08402534
16	0x3e0e0ebd	0.1387281
17	0x3df0b4ce	0.11753236
18	0xbcab4498	-0.020906731
19	0xbd0586dc	-0.032599315
20	0x3dec5c92	0.11541094
21	0xbcef6c00	-0.029226303
22	0x3dbc7a9e	0.09203075
23	0xbdee8f76	-0.11648457
24	0x3df2d816	0.11857621
25	0xbd9a9bf0	-0.07549274
26	0x3e154d47	0.1458026
27	0xbe1e6374	-0.15467626
28	0x3d24cf18	0.040236562
29	0x3d9a76da	0.075422004
30	0x3e2e082d	0.16995306
31	0x3da7290e	0.081621274
32	0xbc931518	-0.017954394
33	0xbe2dad63	-0.16960673
34	0x3e1c6ffd	0.15277095
35	0xbccc0290	-0.024903566
36	0x3d081b98	0.03322944
37	0xbd61c5c8	-0.05512026
38	0xbe20b35a	-0.15693417
39	0xbe20e79c	-0.15713352
40	0x3c7d7e60	0.015472025
41	0xbdf12be4	-0.117759496
42	0xbdd3038e	-0.103034124
43	0x3e0210bb	0.12701695
44	0x3c0e0c30	0.008669898
45	0xbdaa601d	-0.083191134
46	0xbdc21563	-0.094767354
47	0x3e1ecced	0.1550786
48	0xbe030cd0	-0.12797856
49	0xbd40aff8	-0.047042817
50	0xbd8c4fc9	-0.06851155
51	0xbdfa9479	-0.1223535
52	0xbdbd8af3	-0.09255018
53	0x3b647ac0	0.0034863204
54	0xbdb1e755	-0.08686701
55	0x3c9694c0	0.018381476
56	0xbdb5589f	-0.08854794
57	0x3bc42040	0.00598529
58	0x3d50d1d4	0.050981358
59	0xbe2e46b8	-0.17019165
60	0xbe0d50e7	-0.13800393
61	0x3cc09e00	0.02351284
62	0x3da21e42	0.079159275
63	0x3df35e36	0.11883204
64	0xbddcb462	-0.10776593
65	0x3dfaae5a	0.12240286
66	0xbc856578	-0.016283736
67	0x3c0f3fd0	0.008743241
68	0x3c0883b0	0.008332178
69	0x3cce7c28	0.025205687
70	0x3dcd6e36	0.10030787
71	0xbe2044e2	-0.15651277
72	0xbc7ff8a0	-0.015623242
73	0x3d71abd8	0.059001774
74	0xbe2e0644	-0.16994578
75	0x3cfa7dc8	0.030577555
76	0x3d731720	0.059348226
77	0x3dd308ce	0.10304414
78	0xbdbebb7d	-0.09313104
79	0x3c8b3f10	0.016997844
80	0xbd85a0f1	-0.06524838
81	0x3e15a9e3	0.14615588
82	0x3c925a98	0.017865464
83	0xbded4f80	-0.11587429
84	0xbe328d53	-0.17436723
85	0xbc945828	-0.018108442
86	0xbd91a4ae	-0.07111488
87	0x3d9a22ae	0.07526146
88	0x3d44063c	0.047857508
89	0xbe17f4ae	-0.14839432
90	0x3e2b84b1	0.16749837
91	0xbe2053da	-0.15656987
92	0xbcf61370	-0.030038565
93	0x3de9f4b6	0.11423628
94	0x3cbd6410	0.023119003
95	0xbd3cefac	-0.046127006
96	0xbdfec8c1	-0.124406345
97	0x3e1667b9	0.14688005
98	0x3db32c16	0.08748643
99	0x3c324b90	0.010882273
100	0xbd056fdc	-0.03257738
101	0xbc24ea80	-0.010065675
102	0x3e1dc2c1	0.15406324
103	0x3a0e7100	0.00054337084
104	0xbdfc5796	-0.12321393
105	0x3d7d1814	0.06179054
106	0xbdc9ef6a	-0.09860118
107	0xbe1b6edd	-0.1517901
108	0x3df84542	0.12122585
109	0x3e326a71	0.17423417
110	0x3dca3c9e	0.09874843
111	0x3df502ce	0.119634256
112	0x3d37dd6c	0.0448889
113	0xbddce308	-0.1078549
114	0xbdfaae59	-0.122402854
115	0x3d1fd624	0.03902258
116	0x3db3398a	0.08751209
117	0x3e191a37	0.14951406
118	0x3da675aa	0.081279114
119	0xbc704c30	-0.014666602
120	0x3d62a270	0.055330694
121	0x3cc0c130	0.023529619
122	0xbd9b0f4b	-0.07571276
123	0xbe0b33a5	-0.1359392
124	0x3e092a0d	0.13394947
125	0xbda3745c	-0.07981178
126	0xbd493990	-0.04912716
127	0x3dede10a	0.116151884
128	0x3c07a9a0	0.008280188
129	0x3c645250	0.01393564
130	0x3cbd02e8	0.023072675
131	0x3d8d017e	0.0688505
132	0x3cf87078	0.030327067
133	0x3e2abf03	0.16674428
134	0xbb177640	-0.0023111254
135	0xbe321a1e	-0.17392775
136	0xbcb0caa0	-0.021580994
137	0xbdfd3b38	-0.12364811
138	0xbd870bda	-0.065940574
139	0xbdb6aef0	-0.089200854
140	0x3c84ba90	0.016202241
141	0x3dfb2d36	0.12264483
142	0x3d1091fc	0.03529547
143	0x3d071800	0.032981873
144	0x3e087b89	0.13328375
145	0xbd9f64fa	-0.077829316
146	0x3d261d08	0.04055503
147	0xbdb1cf78	-0.0868215
148	0x3dc814c2	0.09769584
149	0x3dec03ba	0.11524148
150	0xbdbf0661	-0.093273886
151	0x3dae654e	0.08515416
152	0x3e1fe113	0.15613203
153	0x3d852026	0.065002725
154	0x3d84fd7e	0.06493662
155	0xbe1b762a	-0.15181795
156	0xbe0aa6f8	-0.13540256
157	0xbe06968e	-0.1314337
158	0x3dbe0f7e	0.09280299
159	0x3da607a6	0.081069276
160	0x3cd4e010	0.025985748
161	0xbdaa437d	-0.083136536
162	0xbdd11bc8	-0.10210377
163	0x3c80d788	0.015727773
164	0x3d7f8b60	0.062388778
165	0x3e09c45b	0.1345381
166	0x3d9e1d46	0.07720427
167	0x3d83bcc2	0.06432487
168	0x3dc63196	0.096774265
169	0xbe15c81a	-0.14627114
170	0x3e000157	0.12500511
171	0x3dd7886e	0.10524069
172	0x3d913c28	0.07091552
173	0x3cec1368	0.028817847
174	0x3d9771f6	0.07394783
175	0xbda229f1	-0.07918156
176	0x3cf55ac0	0.0299505
177	0xbd055098	-0.032547563
178	0x3da62512	0.08112539
179	0xbe3162b1	-0.17322804
180	0xbdac8d3f	-0.08425378
181	0xbd83b8f0	-0.064317584
182	0xbc9c8f40	-0.019111276
183	0x39a50600	0.00031475723
184	0x3d6bdf50	0.057586014
185	0x3e04d573	0.1297205
186	0xbdbf08c4	-0.09327844
187	0x3d02a140	0.03189206
188	0xbd866a8e	-0.065632924
189	0x3e1bc2ef	0.1521108
190	0xbd901445	-0.07035116
191	0xbe2398e7	-0.15976296
192	0x3dae8642	0.085217014
193	0xbdfbe80c	-0.12300119
194	0xbb9d56e0	-0.004801616
195	0x3e1d8177	0.15381418
196	0x3d3c5558	0.045979828
197	0x3e28f07b	0.16497986
198	0x3dba935a	0.09110136
199	0xbbb95d60	-0.005656883
200	0xbe0566d5	-0.13027509
201	0xbd88e751	-0.06684745
202	0xbe261ea6	-0.16222629
203	0xbe246b7e	-0.1605663
204	0x3e035531	0.12825467
205	0x3dbb59f6	0.09148018
206	0x3ce366e0	0.027759016
207	0xbc8abde0	-0.016936243
208	0x3e031297	0.1280006
209	0xbdcf6e12	-0.10128416
210	0xbe2230ec	-0.15838975
211	0x3e047119	0.12933768
212	0x3c4f2700	0.012643576
213	0x3da4aeee	0.08041178
214	0x3c9da678	0.019244418
215	0xbe241234	-0.16022569
216	0x3d3e9d6c	0.046536848
217	0x3d0dab48	0.034587175
218	0x3e19e345	0.15028103
219	0x3e2eff9d	0.17089696
220	0xbda81d56	-0.082087204
221	0xbd14e858	-0.036354393
222	0xbda2e5be	-0.07953976
223	0x3c9e63a8	0.01933463
224	0xbdf9c7c4	-0.121963054
225	0x3e2d6ed3	0.16936807
226	0x3d70ffd8	0.05883774
227	0x3dbd54fa	0.092447236
228	0x3d694f48	0.056960374
229	0xbe23a01c	-0.15979046
230	0x3d967102	0.07345773
231	0x3d88da80	0.066823006
232	0xbe1751fa	-0.14777365
233	0xbd84f53a	-0.06492086
234	0x3c323df0	0.010879025
235	0xbd6231ec	-0.05522339
236	0xbd96de4e	-0.0736662
237	0xbc9ad158	-0.018898651
238	0xbe31230b	-0.17298524
239	0xbe112ae1	-0.14176513
240	0xbe16fcb4	-0.14744836
241	0xbdfb7f90	-0.1228019
242	0xbe3064c6	-0.17225942
243	0x3db01c66	0.085991666
244	0xbca15f20	-0.01969868
245	0x3dd8c89e	0.1058514
246	0x3e33b7fd	0.17550655
247	0xbdf3fd0a	-0.11913498
248	0x3cd560f0	0.0260472
249	0x3d938c48	0.07204491
250	0x3c6725a0	0.014108092
251	0x3de02cae	0.10946022
252	0x3de2bbf2	0.11071004
253	0xbe2e343c	-0.17012113
254	0x3db7a4ae	0.08966957
255	0x3b8a2780	0.0042161345

4.bias f4 [8]
0	0x3df6cd5a	0.120508865
1	0xbe108769	-0.14114155
2	0xbe1a6b65	-0.1508003
3	0x3c660f30	0.014041707
4	0x3d435de8	0.047696978
5	0xbd19870c	-0.037482306
6	0x3e078f65	0.13238294
7	0x3d36367c	0.044485554
