CIS522/model/autoencoder-cpu.pth (torch, 150935 bytes, 6 tensors)

0.weight f4 [128, 256]
000000 01 0f 0c bf eb 01 15 bf ee 47 08 bf a3 0e 0a bf
       -0.54710394 -0.5820605 -0.53234756 -0.53928584
000010 67 af 0e bf 45 04 17 bf 97 37 16 bf 8e f5 10 bf
       -0.5573639 -0.5899089 -0.58678573 -0.56624687
000020 c2 86 0f bf cb 51 0f bf f1 da 11 bf 08 58 01 bf
       -0.56065 -0.5598418 -0.56974703 -0.5052495
000030 4f fb 03 bf 0b 8a 12 bf 58 c1 0d bf 5e 9f 19 bf
       -0.5155534 -0.57241887 -0.55373144 -0.600088
000040 fc 32 0f bf 78 04 1a bf b7 cb 02 bf e6 15 0e bf
       -0.5593717 -0.6016307 -0.51092094 -0.55502164
000050 7e cf 0e bf 16 a4 1b bf b5 58 12 bf 7a 91 19 bf
       -0.5578536 -0.6079725 -0.57166606 -0.59987605
000060 39 6a 07 bf 89 5a 1c bf 46 58 0d bf 7a 9c 0b bf
       -0.5289646 -0.61075646 -0.5521282 -0.5453564
000070 1f 51 09 bf 9e 75 19 bf e3 a7 1c bf 8d ba 06 bf
       -0.53639406 -0.59945095 -0.61193675 -0.52628404
000080 d5 97 17 bf d7 05 15 bf 01 c9 15 bf f1 20 01 bf
       -0.5921605 -0.58212036 -0.5850983 -0.5044089
000090 47 e6 05 bf bf bd 06 bf d1 ff 0e bf 0f da 06 bf
       -0.523045 -0.5263328 -0.55859095 -0.5267648
0000a0 df ec 18 bf e3 dd 16 bf 51 fb 04 bf 43 55 0d bf
       -0.59736437 -0.5893232 -0.5194598 -0.55208224
0000b0 39 67 08 bf ac cb 04 bf 0a 94 0e bf 0f 83 03 bf
       -0.53282505 -0.5187328 -0.5569464 -0.51371855
0000c0 19 5c 07 bf 0f 3d 0a bf 30 59 04 bf 1d 4f 06 bf
       -0.52874905 -0.5399942 -0.5169859 -0.5246447
0000d0 45 0c 0e bf 7b aa 0f bf d7 56 12 bf 1b 40 07 bf
       -0.5548747 -0.5611951 -0.5716376 -0.5283219
0000e0 7f 39 0f bf fa be 08 bf de e9 0d bf c0 37 05 bf
       -0.5594711 -0.5341641 -0.5543498 -0.5203819
0000f0 83 d2 12 bf c9 72 03 bf df ad 10 bf 7c 45 01 bf
       -0.57352465 -0.51347023 -0.56515306 -0.5049665
000100 7b ce 12 bf d6 c6 0e bf ec 86 0c bf 90 4d 17 bf
       -0.57346314 -0.5577215 -0.54893374 -0.59102726
000110 f9 52 18 bf c2 d6 08 bf f0 47 15 bf e5 33 06 bf
       -0.59501606 -0.53452694 -0.5831289 -0.52422935
000120 86 4a 0e bf 42 5f 0d bf f1 c7 0b bf 2a d6 0f bf
       -0.55582464 -0.55223477 -0.5460196 -0.56186163
000130 51 ca 00 bf e5 e8 19 bf eb bb 0b bf 9d 86 1b bf
       -0.5030871 -0.60120994 -0.54583615 -0.6075228
000140 eb 19 08 bf b7 72 19 bf f5 02 11 bf 1c ce 15 bf
       -0.5316455 -0.59940666 -0.5664514 -0.5851762
000150 20 86 02 bf c5 ef 00 bf 85 ce 1a bf a7 70 0f bf
       -0.5098591 -0.5036586 -0.60471374 -0.5603127
000160 6d 8d 1a bf 56 f6 01 bf cc 42 05 bf e2 b0 16 bf
       -0.6037205 -0.50766504 -0.5205505 -0.5886365
000170 ad 4b 0b bf 1a ad 19 bf ec 74 10 bf 79 df 13 bf
       -0.5441235 -0.6002976 -0.5642841 -0.5776287
000180 cd 53 06 bf 8b 30 06 bf 4b 8f 07 bf b6 26 04 bf
       -0.5247162 -0.5241782 -0.5295302 -0.5162157
000190 b9 8c 02 bf c2 0d 0f bf e1 57 01 bf c2 c4 07 bf
       -0.50995976 -0.5588037 -0.5052472 -0.53034604
0001a0 41 31 0c bf 66 b1 13 bf c8 e3 16 bf a3 fc 05 bf
       -0.54762655 -0.57692564 -0.58941317 -0.5233862
0001b0 56 38 01 bf b0 64 1b bf bf 7f 0c bf 65 c5 11 bf
       -0.50476587 -0.6070051 -0.54882425 -0.56941825
0001c0 e5 5d 0c bf 64 2d 00 bf 5c 62 03 bf d7 1c 14 bf
       -0.5483077 -0.5006926 -0.5132196 -0.57856506
0001d0 a8 42 1c bf 5c 6d 16 bf ce 11 00 bf 53 38 0f bf
       -0.6103921 -0.5876062 -0.5002717 -0.5594532
0001e0 b7 f8 08 bf 77 c3 11 bf 25 74 02 bf 67 6a 06 bf
       -0.5350451 -0.5693888 -0.5095847 -0.5250611
0001f0 73 7a 08 bf ce 90 0b bf 9d fa 18 bf 41 ba 1a bf
       -0.5331184 -0.5451783 -0.59757406 -0.6044045
000200 ff 5b 01 bf 9e dd 01 bf e4 3e 13 bf c6 40 18 bf
       -0.50531 -0.50728786 -0.5751784 -0.59473836
000210 4c ee 17 bf 73 30 0f bf f0 8b 06 bf 19 a4 00 bf
       -0.5934799 -0.559333 -0.5255728 -0.50250393
000220 84 2f 03 bf e6 68 06 bf bf c4 18 bf 7e df 0a bf
       -0.5124438 -0.5250381 -0.5967521 -0.5424727
000230 ad f3 08 bf 47 c9 09 bf 18 d0 0d bf 72 08 0a bf
       -0.5349682 -0.5382275 -0.5539565 -0.53919137
000240 1b 49 18 bf e4 7d 11 bf fa 51 08 bf 05 58 0d bf
       -0.5948655 -0.5683272 -0.53250086 -0.5521243
000250 cd 0d 0d bf a1 2e 07 bf bd fa 02 bf dd 19 10 bf
       -0.55099183 -0.52805525 -0.51163846 -0.56289464
000260 31 37 19 bf 90 0b 18 bf 87 2e 19 bf 41 f7 02 bf
       -0.5984984 -0.5939264 -0.5983662 -0.5115853
000270 b1 33 1b bf 76 63 1a bf 77 94 04 bf 76 4c 10 bf
       -0.6062575 -0.60308015 -0.5178904 -0.5636667
000280 96 ea 0b bf f7 03 0b bf e0 a8 09 bf 48 52 15 bf
       -0.54654825 -0.54302925 -0.5377331 -0.58328676
000290 82 bc 1b bf 0e 88 0b bf 0f f0 04 bf 3f c0 16 bf
       -0.60834515 -0.5450448 -0.519288 -0.58887094
0002a0 dc 5a 1a bf 59 c0 00 bf 84 a7 17 bf b3 3c 06 bf
       -0.6029489 -0.502935 -0.59239984 -0.5243637
0002b0 e2 7c 04 bf 09 d9 0c bf 58 ac 0f bf a0 e8 16 bf
       -0.51753056 -0.5501867 -0.5612235 -0.5894871
0002c0 d1 43 15 bf 11 86 14 bf 8f 70 13 bf c5 c2 10 bf
       -0.58306605 -0.5801707 -0.57593626 -0.56547195
0002d0 38 5f 14 bf 79 6a 16 bf 0d 5d 00 bf ee 90 09 bf
       -0.5795779 -0.58756214 -0.50141984 -0.5373677
0002e0 11 0c 13 bf b5 f2 09 bf 34 50 08 bf 8a 83 11 bf
       -0.57440287 -0.53885967 -0.5324738 -0.5684134
0002f0 d4 b0 df 82 39 73 45 83 80 9b 08 bf 1a f4 19 bf
       -3.28684e-37 -5.8025366e-37 -0.53362274 -0.60138094
000300 e1 3b 0c bf 28 a8 0d bf db de 0e bf 9d 47 1b bf
       -0.5477887 -0.5533471 -0.558088 -0.6065615
000310 88 39 12 bf 42 28 1c bf b0 66 17 bf 45 ac 0e bf
       -0.57119036 -0.6099893 -0.59141064 -0.5573161
000320 43 75 14 bf cb 7e 0e bf 60 cf 0c bf f4 e2 17 bf
       -0.5799143 -0.5566222 -0.5500393 -0.5933068
000330 63 f4 1b bf ce 48 30 83 74 f6 10 bf f6 86 15 bf
       -0.6091978 -5.1805327e-37 -0.5662606 -0.5840906
000340 86 19 01 bf 5f c8 05 bf 27 fc 1b bf 92 0f 0d bf
       -0.5042957 -0.5225887 -0.6093163 -0.55101883
000350 5c 8f 18 bf 1d 22 0c bf f9 10 07 bf f1 2f 18 bf
       -0.5959375 -0.5473955 -0.52760273 -0.5944815
000360 d8 db 17 bf 23 92 16 bf d7 fe 0c bf 95 9a 0e bf
       -0.5931983 -0.58816737 -0.55076355 -0.55704623
000370 a4 d3 15 bf d1 4a 28 83 0b c7 02 bf d2 53 1c bf
       -0.5852606 -4.9456648e-37 -0.51084965 -0.610654
000380 b6 15 09 bf 5f 6b 06 bf 8b 7c 13 bf d5 ab 18 bf
       -0.53548753 -0.52507585 -0.5761191 -0.59637195
000390 79 92 1b bf 33 69 13 bf a9 4a 1b bf 09 aa 0b bf
       -0.60770375 -0.57582396 -0.606608 -0.5455633
0003a0 0d bc 1c bf 40 5f 17 bf 39 7d 07 bf a5 6f 17 bf
       -0.6122444 -0.59129715 -0.5292545 -0.5915473
0003b0 c8 9b 35 83 9f e2 2b 83 57 5c 1b bf 79 18 48 83
       -5.3369947e-37 -5.051253e-37 -0.60687774 -5.880281e-37
0003c0 b5 d2 11 bf 55 62 0b bf 97 fe 0d bf bd 6a 08 bf
       -0.5696214 -0.5444692 -0.554666 -0.5328787
0003d0 ea 14 03 bf 7c be 0f bf d3 86 06 bf 8e eb 10 bf
       -0.5120379 -0.5615003 -0.52549475 -0.5660943
0003e0 30 a4 01 bf 56 72 0f bf 04 34 02 bf 67 02 0e bf
       -0.50641155 -0.5603384 -0.5086062 -0.55472416
0003f0 70 ac 18 bf ed 10 54 03 a0 5c 43 03 85 4a 29 03
       -0.5963812 6.232063e-37 5.741168e-37 4.975018e-37

0.bias f4 [128]
000000 0a 02 07 bf 15 4a 13 bf 0e c0 86 b8 39 00 e7 be
       -0.52737486 -0.57534915 -6.425391e-05 -0.45117357
000010 55 a7 c9 be 45 3b 9b b9 ff 22 01 bf fb 07 2c b7
       -0.39385477 -0.00029608063 -0.50444025 -1.0253857e-05
000020 23 ea 7f bc 6f ed ac bb 86 83 9c bc ac a3 71 bc
       -0.015619787 -0.0052773277 -0.019105684 -0.014748495
000030 1e 4c 8f bc 39 91 f8 be 70 a2 01 bf 3e 5d f2 be
       -0.01749235 -0.48548296 -0.50638485 -0.47336763
000040 9a 91 06 bf 6d 87 cc be e3 63 89 b2 7a c1 15 b6
       -0.5256592 -0.39947072 -1.5994322e-08 -2.2315348e-06
000050 75 ab 2a bd 75 1d 15 af 3f 0f 1b bd eb bb 6e b6
       -0.04166742 -1.3561936e-10 -0.037856337 -3.5574146e-06
000060 b1 0e c2 ad a2 f8 49 bd a0 b9 0e bf 84 ca e6 be
       -2.206177e-11 -0.04930938 -0.5575199 -0.45076382
000070 58 f8 da be b8 b0 f4 be 8b 81 f7 be c2 b4 14 c0
       -0.42767596 -0.47791076 -0.4834102 -2.3235326
000080 a0 03 3f bd fb 87 ff be ca c0 8c b8 9e 9b e9 be
       -0.046634316 -0.49908432 -6.71163e-05 -0.4562654
000090 f4 b9 d5 be 16 97 3a ba 7e 90 f5 be 14 85 18 bf
       -0.41743433 -0.00071178505 -0.479618 -0.5957806
0000a0 71 89 01 bf bd e1 ad be e9 f9 8f be ea 56 ed be
       -0.50600344 -0.33961287 -0.28120354 -0.46355373
0000b0 ae 5d c2 ad b0 b2 d0 be a5 27 b5 be 7e 47 1a bf
       -2.2096849e-11 -0.40761328 -0.3538181 -0.6026534
0000c0 14 14 a4 ba bb 9f 1e b0 4d 32 0a bf 52 25 e8 be
       -0.0012518191 -5.7707056e-10 -0.53983 -0.45340973
0000d0 11 87 10 c0 0a 3b 5b be 36 8f f2 be f5 cd ff be
       -2.2582438 -0.2140924 -0.47374886 -0.4996182
0000e0 4c 03 ee be 23 42 f7 be f1 c2 9a bc 36 ab e9 be
       -0.4648689 -0.48292646 -0.018891783 -0.45638436
0000f0 8d d2 03 bf f6 a4 5c a0 a5 dd 10 be e1 bb 86 ba
       -0.5149315 -1.8689306e-19 -0.1414705 -0.0010279381
000100 37 8d ee be 52 3c d8 be df e3 ef be 18 5c 89 b8
       -0.46592113 -0.4223352 -0.4685354 -6.549823e-05
000110 6d 15 d4 ba 86 43 07 bf 4d 11 ff be 41 ea c9 bd
       -0.0016180702 -0.5283741 -0.49817887 -0.098591335
000120 7a 2d b5 b8 c1 12 da be 72 75 d5 be 0d d5 f3 bc
       -8.639223e-05 -0.42592433 -0.41691166 -0.029764676
000130 50 95 f3 be 02 d5 00 bf d4 94 ff be 12 b8 f7 be
       -0.47574854 -0.50325024 -0.49918234 -0.48382622
000140 f3 fb d0 be 66 20 e8 be 9d 0c 80 be d7 92 eb be
       -0.40817222 -0.45337218 -0.25009623 -0.46010467
000150 e5 7d fd be 81 14 d9 be 24 28 9b 02 05 16 05 bf
       -0.49510112 -0.42398456 2.2798243e-37 -0.51986724
000160 30 f1 00 bf 1d d9 b6 bc 99 f1 ca be 48 4f 0b bd
       -0.5036802 -0.022320325 -0.3963745 -0.034011155
000170 6f fb 84 be 8f 22 d5 be d4 71 17 bf a4 07 8a be
       -0.2597308 -0.4162793 -0.5915806 -0.26958954
000180 96 6e 0e bf 19 b8 8c bb 10 03 d8 be 21 cf e0 be
       -0.5563749 -0.004294407 -0.42189837 -0.43908027
000190 c1 0e b3 bd f2 3e cc be 6c b8 cc be 5d a4 f8 be
       -0.087430485 -0.39891773 -0.39984453 -0.485629
0001a0 9c ef bb ae 55 15 ed bc 09 67 b7 ba 06 d9 87 bd
       -8.5463386e-11 -0.028940836 -0.0013992499 -0.06633191
0001b0 00 eb b6 b9 1e 89 03 bf 2d f7 ff be 7c 56 cf be
       -0.00034888834 -0.513811 -0.49993268 -0.4049567
0001c0 72 8e 9a b9 84 8e 02 bf 7e 78 03 bf a8 f4 e1 be
       -0.000294793 -0.5099871 -0.5135573 -0.4413197
0001d0 ad b7 a8 b8 68 61 33 be 4b 50 02 bf eb 62 d6 be
       -8.0450765e-05 -0.17517626 -0.5090377 -0.41872343
0001e0 ce 7a 03 b5 5c 73 1c bf 3c 34 fb be 18 55 ed be
       -4.898001e-07 -0.61113524 -0.4906329 -0.46353984
0001f0 83 83 d4 be 20 c0 11 be d7 4f de be fd b0 e3 be
       -0.41506585 -0.14233446 -0.43420288 -0.4447097

2.weight f4 [32, 128]
000000 92 a3 0d bf d9 88 10 bf 2e 5c b3 0d 87 d5 01 bf
       -0.55327713 -0.5645881 1.1053918e-30 -0.5071644
000010 37 1f 08 bf c4 92 84 37 a8 68 e5 be 63 e8 a6 38
       -0.5317263 1.580397e-05 -0.4480641 7.958782e-05
000020 59 09 4c 83 3b c7 1a a7 6e 5e cd 3c 55 50 12 36
       -5.9960942e-37 -2.1479796e-15 0.025069442 2.1802455e-06
000030 8c 17 15 3b c7 45 4b 03 fe fb ea be 1a 02 f5 be
       0.002274963 5.973644e-37 -0.4589538 -0.47853166
000040 80 03 14 bf 5a 80 15 bf 22 09 85 3d 44 04 2d 3d
       -0.5781784 -0.58398974 0.064958826 0.042240396
000050 75 c3 34 3d f7 4e 0b 34 e9 ba a6 02 de 68 23 02
       0.044131715 1.2974111e-07 2.449879e-37 1.2005444e-37
000060 a1 c3 2c 3c 27 16 15 3c 29 60 14 bf b7 8c f7 be
       0.010544688 0.00909952 -0.5795923 -0.48349544
000070 e8 6a c0 be e4 2a ec be 50 4a 56 03 53 86 e9 bf
       -0.37581563 -0.46126473 6.2974254e-37 -1.8244117
000080 b9 af bd 3d 46 a3 e6 be f6 8d 89 37 1c d1 d6 be
       0.09262032 -0.45046443 1.6397778e-05 -0.41956413
000090 21 b2 ca be 69 73 da 1b 1e 83 f7 be fa 3f 1a bf
       -0.39589027 3.6139657e-22 -0.48342222 -0.6025387
0000a0 6e 8e 3b 03 9f c8 17 bf f4 36 21 bf f0 bb 08 bf
       5.511786e-37 -0.592905 -0.62974477 -0.5341177
0000b0 f8 f6 64 1c 9a 3f 04 bf 5a 18 09 03 a4 d1 11 bf
       7.575807e-22 -0.5165955 4.0288636e-37 -0.5696051
0000c0 d0 29 ce 3d 2e a7 0f 3c 9a 6c 14 bf 0f 33 03 bf
       0.10066569 0.008767886 -0.5797821 -0.51249784
0000d0 1a 85 82 82 e2 42 3c 38 f5 13 1d bf ef 34 c4 be
       -1.917818e-37 4.4884982e-05 -0.61358577 -0.38321635
0000e0 47 7f e4 be d4 7d 9b 02 7c bd 8d 95 13 a9 ef be
       -0.44628355 2.2847425e-37 -5.72484e-26 -0.4680868
0000f0 96 18 02 bf 86 25 d0 b7 4c da 92 3c fd e4 1b 3e
       -0.50818765 -2.4813005e-05 0.017926358 0.15224071
000100 32 8e e2 be c1 7d d2 be 08 be ed be 35 5a 64 b5
       -0.4424911 -0.41111568 -0.46434045 -8.506789e-07
000110 48 90 f5 3d e8 69 4c 03 82 b5 e7 be 69 26 72 22
       0.1199041 6.0071786e-37 -0.45255667 3.281745e-18
000120 34 c3 c8 a0 84 e4 34 83 5c a8 01 bf 5a 0e 38 ba
       -3.4010492e-19 -5.315957e-37 -0.5064752 -0.00070211815
000130 78 dd 27 83 8d c9 15 bf 35 cb 39 bf ac 9c f1 be
       -4.9331123e-37 -0.5851067 -0.72575694 -0.47189844
000140 66 e0 02 bf 28 49 de be 96 b2 e7 3b 16 15 2e 03
       -0.51123655 -0.4341519 0.0070708496 5.115821e-37
000150 bd be c5 be 22 9f cc be df 14 3d 3d 1c 2e 14 bf
       -0.38622084 -0.3996516 0.046162482 -0.5788286
000160 9f 09 be be 17 5c 63 3e e2 6d ce be 3f 80 58 3b
       -0.37116715 0.22203098 -0.4031821 0.0033035425
000170 7f de 46 37 6a 88 ef be 1b 14 0b bf 94 0b 03 3c
       1.1853524e-05 -0.46783763 -0.54327554 0.007998366
000180 d2 b0 1f bf 00 7a 81 ac 4a 70 ca be c4 f9 d6 be
       -0.6237918 -3.6799452e-12 -0.39538795 -0.4198743
000190 dc 4f 2d 3d e3 ca c8 be 44 b8 f9 be 9a 4c e2 be
       0.042312488 -0.3921729 -0.48773396 -0.44199067
0001a0 b0 f5 a2 31 03 18 9f 3c 4e ff da 3d 1d 54 03 33
       4.742752e-09 0.01942063 0.10693227 3.0577315e-08
0001b0 68 22 03 38 be fa 13 bf c3 ed c3 be fc 1a f4 be
       3.1264877e-05 -0.5780448 -0.38267335 -0.47676837
0001c0 0f 33 4a a7 0c a1 58 82 d8 b0 a3 82 85 7f 17 bf
       -2.806081e-15 -1.5915392e-37 -2.40522e-37 -0.59178954
0001d0 80 20 d9 2e 86 1c 15 bf a1 3d 03 bf 68 59 0a bf
       9.873791e-11 -0.5824665 -0.51265913 -0.54042673
0001e0 bb 1d 66 35 a7 5b f3 be 87 e5 ca be 17 56 15 bf
       8.572494e-07 -0.47530863 -0.3962824 -0.5833449
0001f0 fe 92 ea be 4c 66 57 3e 26 f8 42 03 96 b5 d8 be
       -0.4581527 0.21035117 5.7296336e-37 -0.4232604
000200 e4 c1 fc be fe 94 f8 be 6e c0 34 03 f3 e5 be be
       -0.49366677 -0.48551172 5.3118144e-37 -0.37284812
000210 67 bf d4 be 59 8d ce 39 21 68 fd be d3 dc 27 03
       -0.41552278 0.00039396694 -0.49493507 4.9330383e-37
000220 c2 9f 44 03 e4 20 e7 3c 6a 5b 12 3e 49 ba cc 3c
       5.7782616e-37 0.028213926 0.14292684 0.024991171
000230 18 82 2e 82 e3 f8 3d 03 dc c9 20 bf 8b b7 dd be
       -1.2820836e-37 5.5827816e-37 -0.6280801 -0.43304095
000240 dc e5 e8 82 4c da 6d 01 46 98 c6 39 1e 56 b3 02
       -3.422127e-37 4.3686646e-38 0.00037878955 2.6351115e-37
000250 9a 19 b8 3b 1c 3a 3f 3e e3 c9 a0 3d a9 d4 14 3c
       0.0056182863 0.1867451 0.07851007 0.009083905
000260 10 d9 4f 83 cc 85 b8 3d 81 f8 4e 83 c4 a3 1b bf
       -6.108101e-37 0.09009895 -6.0823228e-37 -0.6079676
000270 b0 bf c6 be 2a 3a 00 bf 16 94 60 02 d8 45 ce bf
       -0.3881812 -0.5008875 1.649942e-37 -1.6115065
000280 12 e9 fb 3d 91 b0 ff be 05 74 11 3d 8b ee 06 bf
       0.12300314 -0.49939397 0.035511035 -0.5270774
000290 50 a0 f4 be 30 a2 3f 3a 87 f7 0f bf 1d 44 14 bf
       -0.4777856 0.00073102396 -0.5623707 -0.5791643
0002a0 94 60 4e 83 8b 49 18 bf 34 57 00 bf ad 11 0d bf
       -6.0648825e-37 -0.5948722 -0.5013306 -0.55105096
0002b0 58 4a 4e 83 1b fb f4 be 34 d2 28 83 13 f8 05 bf
       -6.06233e-37 -0.47847828 -4.9612064e-37 -0.52331656
0002c0 f3 f2 56 3e 9b c1 a5 3e c0 f9 b1 00 46 ef 1a bf
       0.20991115 0.32374272 1.6344476e-38 -0.6052135
0002d0 dd db 17 3d da 0e 3a 03 d0 c0 ca be de 8a ce be
       0.037074912 5.4677536e-37 -0.3960023 -0.40340322
0002e0 a9 0c 0e bf 86 61 42 83 97 3d 06 36 5a 5f fe be
       -0.5548807 -5.7123427e-37 2.0003406e-06 -0.49682122
0002f0 50 f9 0a bf 15 be 71 3c 0b ec 20 3b 2f 5d 05 3e
       -0.5428667 0.014754792 0.0024554755 0.13023828
000300 7d 49 22 bf e3 26 06 bf 7c 61 10 bf 6c 22 1c 3d
       -0.63393384 -0.52403086 -0.5639875 0.038118765
000310 26 6c 45 3e 51 f9 29 83 0a 13 19 bf 59 74 e8 3c
       0.19279537 -4.9950838e-37 -0.59794676 0.028375791
000320 4d 8e 7b 34 01 14 cc 02 2e 16 01 bf cf c9 94 3d
       2.3427965e-07 2.9986588e-37 -0.5042447 0.072650544
000330 50 c1 2f 03 6f 37 3d 83 0e a4 eb be 5a fa 10 bf
       5.164979e-37 -5.5605743e-37 -0.460236 -0.56632006
000340 50 d2 02 bf 37 32 0f bf c8 7f b0 02 38 42 c8 02
       -0.5110216 -0.55935997 2.5934219e-37 2.9425366e-37
000350 49 12 07 bf f0 9c 02 bf 4b 9b db 26 13 f1 f3 be
       -0.52762276 -0.5102072 1.523827e-15 -0.47644863
000360 e5 bc 0b bf 73 8a 56 3e a4 9a 07 bf d4 fb 30 80
       -0.54585105 0.20951252 -0.5297034 -4.498443e-39
000370 f4 cd 1a 3e 65 42 e8 be 37 2d 16 bf c2 cf c7 3d
       0.15117627 -0.45363155 -0.5866274 0.097564235
000380 98 b8 10 bf 5e de 87 38 18 2b 20 bf b6 50 c0 be
       -0.5653167 6.478721e-05 -0.62565756 -0.37561578
000390 e4 61 35 3e 0f 82 cd be b5 0f cb be be d4 1c bf
       0.17713124 -0.4013829 -0.3966042 -0.6126212
0003a0 cd 24 32 83 5a c1 14 3e 8f 14 6d 35 67 f1 50 03
       -5.2351744e-37 0.14526883 8.8319297e-07 6.1402823e-37
0003b0 92 7c b3 3d 4c a4 2a 83 72 79 d9 be 25 da 0a bf
       0.08763994 -5.0147113e-37 -0.42475468 -0.5423911
0003c0 78 f1 74 3d bf 42 a5 02 ee 30 39 03 e3 72 17 bf
       0.059800595 2.4282881e-37 5.4422782e-37 -0.5915968
0003d0 ea 68 8c 81 7f 74 16 bf 64 e2 e2 be 34 af 21 bf
       -5.157842e-38 -0.5877151 -0.44313347 -0.63157964
0003e0 cf 97 47 03 f6 bd 10 bf f1 7f c7 be e6 2f d8 82
       5.865511e-37 -0.5653986 -0.389648 -3.176584e-37
0003f0 bb a9 02 bf 3e e9 43 3e f5 5b 44 83 a7 f2 d5 be
       -0.5104024 0.19131944 -5.7704785e-37 -0.41786692

2.bias f4 [32]
000000 d8 0b 06 c0 30 4e e4 bf d4 d7 d6 be a8 ec 4a bf
       -2.094473 -1.7836361 -0.4196154 -0.7926736
000010 80 53 0e c0 59 e8 fb be 73 59 8a be 47 8e 50 c0
       -2.2238464 -0.49200705 -0.2702137 -3.258684
000020 f8 d1 01 bf f4 ee 13 bf de 7c f0 bf 89 a6 da be
       -0.5071101 -0.5778649 -1.8788106 -0.4270518
000030 5c 1f 4a c0 af 02 16 bf 5f 08 45 c0 24 c1 b5 be
       -3.158164 -0.58597845 -3.078636 -0.35498917
000040 44 fb ac be e6 52 e0 bd 33 fd 03 c0 3a a9 bc be
       -0.3378545 -0.109533116 -2.062329 -0.3684786
000050 61 43 7c b7 51 cc ff be 22 1e b2 be 86 63 36 bf
       -1.5036058e-05 -0.4996057 -0.34788615 -0.7124561
000060 2d 5a c1 be 94 26 43 c0 9b ee 4d bf 83 4e 5a bf
       -0.3776411 -3.0492296 -0.8044221 -0.8527605
000070 fd 4e 00 bf ec 33 0c c0 5d 77 17 bf 4d 47 aa be
       -0.50120527 -2.190669 -0.5916651 -0.33257523

4.weight f4 [8, 32]
000000 e8 63 18 bf a5 9c aa be 99 2f 43 be be b4 88 be
       -0.59527445 -0.33322635 -0.19061126 -0.26700395
000010 7a 74 05 bf 1c d6 03 be e5 5d a8 3e a7 40 c9 be
       -0.52130854 -0.12874645 0.32884136 -0.39307138
000020 22 8f cc be 5c 40 84 be 4b 45 0c bf 8a 84 14 3f
       -0.39952952 -0.25830352 -0.5479323 0.5801474
000030 e8 c8 0b bf c9 81 17 3f 22 ab 11 bf d8 53 61 3e
       -0.54603434 0.5918241 -0.5690175 0.2200464
000040 9b 30 a5 3e d8 09 96 3d 14 c0 9e bf 8a f2 f2 bd
       0.32263646 0.07326096 -1.2402368 -0.11862667
000050 e2 cb c5 39 08 aa 05 be bb 4a c6 3c 93 c3 be 3e
       0.00037726673 -0.13053143 0.024205556 0.37258586
000060 fd 11 2e be 41 04 08 bf 26 6d 7f be c5 30 2f 3f
       -0.1699905 -0.5313149 -0.2494398 0.6843379
000070 b4 b3 d9 be 96 be c5 be 94 4e 36 bf ea 5d b3 be
       -0.42519915 -0.38621968 -0.7121365 -0.35032588
000080 0a 23 02 bf e4 8f 3a bf 83 e1 ec 3e d9 a9 86 3e
       -0.50834715 -0.7287581 0.46265802 0.26301458
000090 6d c4 03 bf 5a ca d8 3e 18 f1 f0 bc 77 31 1a bf
       -0.51471597 0.42341882 -0.029411837 -0.6023173
0000a0 56 9c 2b bf d2 0f 6b 3e 78 e5 09 bf d8 f6 fe 3e
       -0.67035425 0.22955254 -0.53865767 0.49797702
0000b0 b8 df 06 bf a6 13 13 bf f7 72 3e bf 25 2e 93 b1
       -0.5268512 -0.57451856 -0.7439417 -4.283509e-09
0000c0 d7 23 1a 3f 40 0b a6 ba 53 50 a1 3f 6c f0 ad 3e
       0.6021094 -0.0012668148 1.2602638 0.3397249
0000d0 ac 32 17 9e c6 78 19 3f 01 8a 02 30 58 b9 da be
       -8.004352e-21 0.5994991 4.748984e-10 -0.4271953
0000e0 01 3a 26 3f 53 22 46 bf b8 78 43 3e 49 1d 59 3e
       0.64932257 -0.77396125 0.1908902 0.21202578
0000f0 3c 96 0a bf c5 b4 a9 be 19 d1 da be 15 52 1b 3f
       -0.5413549 -0.3314573 -0.42737654 0.6067212
000100 c6 63 d7 be 58 56 02 bf ad ea ac be 1d fc 8d be
       -0.4206831 -0.50913 -0.33772793 -0.2773141
000110 93 e1 05 bf 4d 5b 81 be 11 23 ba 3d 32 e4 0e bf
       -0.52297324 -0.2526497 0.0908872 -0.5581695
000120 f8 4d 34 bf fc 26 bc be 30 8f 13 bf f7 f0 b7 3e
       -0.7043147 -0.36748493 -0.5764036 0.3592603
000130 e8 b6 08 bf 17 6f 11 3f 28 50 b7 be 6e f2 96 3e
       -0.5340409 0.56810135 -0.35803342 0.29481834
000140 17 a6 a8 bd ea 1d 73 3e c3 3e 59 40 3c 7a aa be
       -0.08234804 0.2374188 3.3944557 -0.33296382
000150 7e f7 18 3a 07 8b a8 bd 1b 2b 3d 3d 23 7b 90 bd
       0.0005835219 -0.08229642 0.046183687 -0.070547365
000160 49 d8 33 be 97 9f 19 bf 09 ca c2 bd 9e 58 c6 bd
       -0.17562975 -0.6000914 -0.095111914 -0.09684871
000170 d5 54 01 bf 18 b8 e1 be b2 e6 06 bf ff c0 12 bf
       -0.5052007 -0.44085765 -0.52695763 -0.5732574
000180 ad df 02 3f 54 bb b4 3e 54 1e dc 3d 92 6f 99 3e
       0.5112255 0.3529917 0.10747972 0.29967934
000190 f2 26 b4 3e 9b f8 97 3e 8c ed 9b 3e 6f 8e bf 3e
       0.35185963 0.29681858 0.3045467 0.37413356
0001a0 73 3a 14 3f dd a6 a1 3e 75 50 ab 3e 42 81 dd be
       0.57901686 0.3157262 0.3345982 -0.43262678
0001b0 1c dc ab 3e 45 6c 14 bf ea ca 98 3e 70 62 e6 be
       0.33566368 -0.57977706 0.2984231 -0.44996977
0001c0 9e 95 0e bd 44 b5 c2 be b2 19 91 3f 7f 2f b0 3e
       -0.034810655 -0.3802892 1.1335967 0.34411237
0001d0 2f 85 1c bb 16 ed 04 3f 01 ff a2 bd 7b 93 0a 3f
       -0.0023883095 0.51924264 -0.079587944 0.5413129
0001e0 4d a6 aa 3d f0 2a f0 3e 26 08 bb 3e 5c 79 34 bf
       0.083325006 0.4690776 0.36529654 -0.7049768
0001f0 5a 96 cb 3e 01 d4 ea 3e f0 53 03 3f 83 a9 d1 3e
       0.39763147 0.4586487 0.51299953 0.4094964
000200 f2 60 b6 3e eb 38 a3 3e 4d 6a 4a 3e cc ab 88 3e
       0.35620838 0.31879362 0.19767113 0.2669357
000210 29 b1 cc 3e e9 fd b9 3e 23 03 13 3e 9f d6 bd 3e
       0.39978912 0.3632653 0.14356665 0.37077805
000220 78 22 27 3f 38 1d 73 3e 12 79 c0 3e fd 87 a4 be
       0.6528697 0.23741615 0.3759237 -0.32135
000230 aa c7 e4 3e bd 42 16 bf e9 1b ac 3e 40 62 9f be
       0.44683582 -0.58695585 0.33615044 -0.31129646
000240 60 dc 48 be c1 04 ad be 23 0b a9 3f 3e f4 be 3e
       -0.19615316 -0.3379269 1.3206524 0.37295717
000250 72 75 45 bd 49 55 ee 3e 02 f4 43 be d4 83 28 3f
       -0.048207708 0.46549442 -0.1913605 0.65826154
000260 05 28 9e 3e 50 77 92 3e e3 19 b2 3e b1 d0 3f bf
       0.30889907 0.28606653 0.34785375 -0.7492781
000270 0a 98 13 3f 1a ee 9e 3e 76 eb e0 3e 65 eb db 3e
       0.5765387 0.31041032 0.43929642 0.4295303
000280 77 e2 b0 be a0 49 fa be ac 2e 6a be 62 56 4f be
       -0.3454778 -0.48884296 -0.22869366 -0.20247796
000290 0d 69 bf be d9 0e 62 be db be cb 3e 56 e2 15 bf
       -0.37384835 -0.22075976 0.3979405 -0.58548486
0002a0 91 07 fd be 7c 8b a5 be 6a 92 10 bf 09 7f c0 be
       -0.49419835 -0.3233298 -0.5647341 -0.3759692
0002b0 d8 78 8e be cb 47 0c 3f 75 73 f6 be 95 54 9a 39
       -0.2782657 0.5479705 -0.48134962 0.00029436187
0002c0 93 46 d0 be 4e 85 5b 32 c4 66 3c 40 ec 7e 80 be
       -0.40678844 1.2777788e-08 2.9437723 -0.25096834
0002d0 2b 21 d5 12 2b 6d 66 3d c7 d7 6d 32 dd 96 53 3e
       1.3450366e-27 0.056256454 1.3844278e-08 0.20663019
0002e0 17 69 10 be 25 03 f6 be 91 65 26 bf 68 7a c6 3e
       -0.14102589 -0.48049274 -0.6499873 0.38765264
0002f0 0b 63 1b bf 1e 7a 03 bf b6 1d ed be ce 15 12 bf
       -0.60698 -0.5135821 -0.4631173 -0.5706452
000300 a6 ec e6 3e ea bc 96 3e 36 02 9b 3d 4b 79 b0 3e
       0.45102423 0.29441005 0.07568781 0.3446754
000310 ac 9f 0e 3f 3c 1b 83 3e 13 4b be 3e c4 fd 0d 3f
       0.5571239 0.25606716 0.37166652 0.5546534
000320 02 39 d4 3e 9d c2 27 3e 05 4f 98 3e 32 3b b0 be
       0.41449744 0.16382833 0.29747787 -0.34420162
000330 25 f1 ba 3e 6a f3 12 bf d8 cf 97 3e 83 42 27 be
       0.36512104 -0.5740267 0.2965076 -0.16333966
000340 01 83 2b bc 50 1e a4 bd 99 5a 99 3f d3 fe 9a 3e
       -0.0104682455 -0.08013594 1.1980773 0.3027254
000350 8f 63 46 ba e1 0e fa 3e 16 76 59 bc 76 2f f5 3e
       -0.0007567936 0.48839477 -0.013272783 0.47887772
000360 4f e0 f2 3d f5 33 b7 3e 13 66 91 3e 6d 5e 20 bf
       0.1185919 0.35781828 0.2839819 -0.6264408
000370 79 44 18 3f 19 8a 06 3f 8b fe 10 3f 30 d6 bf 3e
       0.5947948 0.5255447 0.566384 0.374681
000380 25 c3 fe be 07 cf 04 bf 31 37 89 3c 88 ef 1d be
       -0.49758258 -0.518784 0.01674995 -0.15423405
000390 ed 26 fa be 63 55 46 be c0 74 e1 be c4 df c2 be
       -0.48857823 -0.1936851 -0.44034386 -0.38061345
0003a0 82 cd d7 be 1f 21 ca bd bc 0f f7 be 0c b8 c3 3e
       -0.42148978 -0.098695986 -0.48254192 0.38226354
0003b0 88 77 f6 be 8f 12 15 3f 36 df dd be 90 48 e4 3d
       -0.4813807 0.58231443 -0.4333436 0.11146653
0003c0 0e b2 46 3e 75 08 8a 3d bf 8f 58 40 02 53 c7 bc
       0.1940386 0.06739894 3.3837736 -0.024331573
0003d0 79 33 5d 37 84 5d 95 be 85 a0 77 3b 23 0f eb be
       1.3184611e-05 -0.2917291 0.0037784886 -0.45909986
0003e0 90 86 67 be 76 05 94 be 1f b5 73 bf 04 96 37 3d
       -0.22609925 -0.28910416 -0.95198244 0.0448208
0003f0 89 80 ec be 3d 7e 0f bf 94 89 13 bf fb 03 d5 be
       -0.46191815 -0.56052 -0.576318 -0.416046

4.bias f4 [8]
000000 1d 72 ae 3f 72 11 bd 3e 87 ed 7b 40 95 6c 9a bc
       1.3628575 0.36927372 3.9363725 -0.018850604
000010 45 3a 63 bd 22 2b 90 40 ed 0e 0b bf e7 a3 fb 3f
       -0.055475492 4.505265 -0.5431965 1.9659394
