CIS522/model/cnn-cpu.pth (torch, 8079 bytes, 6 tensors)

conv1.weight f4 [1, 1, 5, 5]
0	0xbf0022ff	-0.500534
1	0xbe06e64c	-0.13173789
2	0xbe4ff660	-0.20308828
3	0xbf049843	-0.5179483
4	0xbf022f58	-0.5085349
5	0x3b3d5054	0.002888699
6	0xbd18bcc2	-0.03728939
7	0x3e09e2a4	0.13465363
8	0xbda4f2f7	-0.08054154
9	0xbed0f049	-0.40808323
10	0xbf212e0e	-0.629609
11	0xbe953ae1	-0.29146484
12	0x3e2c910c	0.16852206
13	0xbd79604e	-0.06088286
14	0xbee8454f	-0.45365378
15	0xbeea0254	-0.457049
16	0xbef8ff82	-0.48632437
17	0xbe9ac132	-0.3022552
18	0xbee63fc0	-0.44970512
19	0xbeeee326	-0.46657676
20	0xbf1d9027	-0.61548084
21	0xbf06790b	-0.52528447
22	0xbf0b2c10	-0.5436411
23	0xbea2a6e0	-0.3176794
24	0xbe920825	-0.2852184

conv2.weight f4 [1, 1, 3, 3]
0	0xbe3b4933	-0.18289642
1	0xbe62724d	-0.22113915
2	0xbe5056e3	-0.20345645
3	0x3dfb1d98	0.12261504
4	0xbdca2afb	-0.09871479
5	0xbe88ef07	-0.26744863
6	0xbe4a7040	-0.19769382
7	0xbde1e1a9	-0.110293694
8	0xbc5cfd5b	-0.013488139

fc1.weight f4 [16, 81]
0	0xbd924c7d	-0.07143495
1	0x3e9d658e	0.30741543
2	0x3ddcab84	0.107749015
3	0x3dab4f44	0.08364728
4	0x3edf5738	0.4362123
5	0x3ebba704	0.3665086
6	0xbddefcb8	-0.10888046
7	0xbc9e21e3	-0.019303268
8	0x3e06aa82	0.13150981
9	0x3e5c19e6	0.21494254
10	0x3ea4d453	0.3219324
11	0x3d008304	0.031374946
12	0xbe3dc2b9	-0.18531312
13	0x3eda62d9	0.4265354
14	0x3ead25fa	0.33818036
15	0x3e12e7bb	0.1434621
16	0x3e232980	0.159338
17	0x3e7a6bf5	0.24455245
18	0x3eab26e9	0.33428124
19	0x3dc91245	0.09817938
20	0xbe1077ac	-0.14108151
21	0x3d683243	0.05668856
22	0xbe4a7864	-0.19772488
23	0xbe90ffbe	-0.28320116
24	0xbe11cab3	-0.1423748
25	0xbe5c1553	-0.2149251
26	0xbe9e0d00	-0.30869293
27	0xbd21296b	-0.03934614
28	0x3dff9c50	0.12480986
29	0xbe2c4914	-0.16824752
30	0xbeea19c6	-0.4572279
31	0xbe690ee7	-0.22759591
32	0xbf2b7135	-0.66969615
33	0xbf17ec96	-0.59345376
34	0xbeb23853	-0.34808597
35	0xbc469341	-0.012120069
36	0xbe7ce977	-0.24698435
37	0xbe257d0a	-0.1616098
38	0xbecca4f8	-0.3996961
39	0xbe99d360	-0.3004408
40	0xbe674536	-0.22584996
41	0xbe89548a	-0.2682231
42	0xbf1ea7dd	-0.6197489
43	0xbf35c0c7	-0.7099728
44	0xbf4028cd	-0.7506226
45	0xbe89690d	-0.2683796
46	0xbe9cbc19	-0.30612257
47	0xbf348128	-0.70509577
48	0xbf24963a	-0.6429173
49	0xbf3bd3eb	-0.73370236
50	0xbf3f5e70	-0.74753475
51	0xbf1fcae6	-0.62418973
52	0xbedc14a3	-0.42984495
53	0xbedf6c61	-0.43637374
54	0xbc51f1c0	-0.012813985
55	0xbe9232fb	-0.2855452
56	0xbf15b4b6	-0.5847887
57	0xbf3ff5c7	-0.749844
58	0xbf6a57d8	-0.9154029
59	0xbf7501c8	-0.9570584
60	0xbf06590c	-0.52479625
61	0xbe93ea16	-0.2888953
62	0xbe387c3b	-0.1801614
63	0xbd49e134	-0.049287036
64	0x3c0ec0b2	0.008712934
65	0xbecf4753	-0.40484104
66	0xbf7e7ddb	-0.9941079
67	0xbf86a3d3	-1.0518745
68	0xbf98138c	-1.1880965
69	0xbf52e8fd	-0.8238676
70	0xbee073b0	-0.43838263
71	0xbedaa471	-0.42703584
72	0xbe230699	-0.15920486
73	0xbd955db1	-0.07293261
74	0xbe4a5ad9	-0.19761218
75	0xbedce29f	-0.43141648
76	0xbed0bbe3	-0.40768346
77	0xbeb29335	-0.34877935
78	0xbf1f729d	-0.6228426
79	0xbf0a97c9	-0.54137856
80	0xbe7f1524	-0.24910408
81	0x3f79fb58	0.97649145
82	0x3f667428	0.9002099
83	0x3ec8a7da	0.3919056
84	0x3f578574	0.8418801
85	0x3f3ae6e4	0.7300856
86	0x3f99a233	1.2002624
87	0x3f84fa6f	1.0388926
88	0x3f1fe176	0.624534
89	0x3f480fbd	0.78149015
90	0x3f2b6e46	0.6696514
91	0x3f124e45	0.5715068
92	0x3e99a73e	0.30010408
93	0x3f7ea4a8	0.99469995
94	0x3e35016b	0.17676322
95	0x3f5e110b	0.86744756
96	0x3f59f5de	0.8514079
97	0x3e847f00	0.25878143
98	0x3f31038e	0.6914605
99	0x3f2bf4ce	0.6717042
100	0x3e794b3b	0.24345104
101	0xbee2384e	-0.44183582
102	0xbc4d59d2	-0.012533622
103	0xbebf0983	-0.37311944
104	0x3df33fc4	0.11877397
105	0x3e136bdf	0.14396618
106	0x3ee8ef58	0.45495105
107	0x3e945d5c	0.28977478
108	0x3ee6ff72	0.45116764
109	0x3ea8b8bf	0.3295345
110	0x3e602da3	0.21892409
111	0x3ec00a6b	0.37507948
112	0x3f10a17a	0.56496394
113	0x3d37feda	0.04492078
114	0x3dce114e	0.10061894
115	0x3f2c0b4f	0.67204756
116	0x3e47445d	0.19459672
117	0x3dcef6c2	0.10105659
118	0xbec8ce8c	-0.39220083
119	0xbe6e6c83	-0.23283581
120	0xbe521644	-0.20516306
121	0xbe21e6ad	-0.15810652
122	0xbf24e07a	-0.64405024
123	0xbeb934ac	-0.36172998
124	0xbe260818	-0.16214025
125	0xbe67b9e8	-0.22629511
126	0x3db0db7b	0.086356126
127	0xbca6a663	-0.020343011
128	0xbef47855	-0.47748056
129	0xbe0a79fc	-0.13523096
130	0x3bfcb478	0.0077119432
131	0xbf04913a	-0.517841
132	0xbf6ca92c	-0.92445636
133	0xbef01b94	-0.4689604
134	0x3ed1ef68	0.41002965
135	0x3ea475d9	0.3212116
136	0x3e081e1b	0.13292734
137	0xbc9fc9e8	-0.019505456
138	0xbe4712c6	-0.19440755
139	0xbec220df	-0.37915704
140	0xbea2060e	-0.31645244
141	0xbed70698	-0.41997218
142	0xbd683aa3	-0.056696545
143	0x3f0995e7	0.5374436
144	0x3eefc09d	0.4682664
145	0x3ea5efba	0.3240946
146	0x3e6b1e31	0.22960736
147	0x3d5628d8	0.052285045
148	0xbdf34c8b	-0.11879834
149	0xbdfcf9b2	-0.12352313
150	0xbefdb73a	-0.49553853
151	0x3dfdaba1	0.12386251
152	0x3e55bd3b	0.20872967
153	0x3ed5df21	0.41771796
154	0x3ed06296	0.40700215
155	0x3ee33157	0.4437358
156	0x3e905ca1	0.2819567
157	0x3eac0575	0.33597913
158	0xbd216636	-0.039404117
159	0x3d650ae7	0.0559186
160	0x3e9150e2	0.2838202
161	0x3ed68bf6	0.41903657
162	0x3f454ec4	0.7707331
163	0xbd87da32	-0.06633414
164	0x3dbe381b	0.09288045
165	0x3e5aab77	0.21354471
166	0x3eacc685	0.33745208
167	0x3f49fda5	0.78902656
168	0x3f460550	0.77351856
169	0x3f116d32	0.56807244
170	0x3f48a257	0.7837271
171	0x3e69e75a	0.2284216
172	0x3ec03df2	0.3754726
173	0x3d81d389	0.06339175
174	0xbeaacccf	-0.33359382
175	0x3f48ee1b	0.7848832
176	0x3f0a8e1d	0.541231
177	0x3e634c5d	0.22197099
178	0x3f3136a9	0.6922403
179	0x3f498e34	0.7873261
180	0x3f16c174	0.58888936
181	0x3ed69cf1	0.41916612
182	0xbe99f6b3	-0.3007103
183	0xbdc9e9e4	-0.09859064
184	0xbddab381	-0.10678769
185	0x3d874943	0.066057704
186	0xbe6c012c	-0.23047322
187	0x3da0d54b	0.078531824
188	0x3ec3370b	0.38127932
189	0x3ef1b26a	0.47206432
190	0x3bb7b722	0.005606548
191	0xbef9f9ce	-0.48823398
192	0x3e0a1af8	0.1348685
193	0x3de22680	0.110424995
194	0xbe16a234	-0.14710313
195	0xbeea8961	-0.45807937
196	0x3e166f50	0.146909
197	0x3e8a730f	0.27040908
198	0x3e1101a3	0.1416078
199	0x3e5a419d	0.21314092
200	0xbe6bfd63	-0.23045878
201	0x3d59f2a6	0.053209923
202	0xbdb26cf6	-0.08712189
203	0xbe08c787	-0.13357364
204	0xbecca5e8	-0.39970326
205	0xbebf2be2	-0.37338167
206	0xbdb29fc9	-0.08721883
207	0x3e544b6b	0.20731895
208	0x3d323417	0.043506708
209	0xbd37be68	-0.04485932
210	0xbd36d3a1	-0.04463542
211	0x3e2bcd26	0.16777477
212	0x3eba4ed7	0.36388275
213	0x3d2dd8a2	0.042442925
214	0x3df8d74d	0.1215044
215	0x3dec5e20	0.115413904
216	0x3ed851bf	0.42249867
217	0x3e865233	0.26234588
218	0xbcca494b	-0.024693152
219	0x3cc00d6f	0.023443906
220	0xbe00ae8d	-0.12566586
221	0xbe9c5899	-0.30536345
222	0xbdd2d1cd	-0.102939226
223	0xbe44da6e	-0.1922395
224	0x3edb0f46	0.4278509
225	0x3f0a088c	0.5391929
226	0x3ea30226	0.31837577
227	0x3e83b31a	0.2572258
228	0x3e963a52	0.2934137
229	0x3e87463d	0.26420775
230	0xbb9d48dd	-0.0047999457
231	0x3d061851	0.032738034
232	0x3c52652b	0.012841503
233	0x3eb7d3b5	0.35903707
234	0x3f1e63cb	0.6187102
235	0x3ec19f5a	0.37816888
236	0x3eb05dc6	0.34446543
237	0x3f01fe16	0.5077833
238	0x3dd5facd	0.10448227
239	0xbd937fa9	-0.072020836
240	0x3e8668e3	0.26251897
241	0xbaca2788	-0.0015423158
242	0x3f057a14	0.521394
243	0xbe744941	-0.23856069
244	0x3eb02e28	0.34410214
245	0xbdd7b88c	-0.105332464
246	0xbc340830	-0.01098828
247	0x3e6bf564	0.23042828
248	0x3e05be21	0.1306081
249	0xbe4e792e	-0.20163414
250	0xbe5f0fb0	-0.21783328
251	0xbe911b9c	-0.28341377
252	0xbea21bfd	-0.31661978
253	0x3e905604	0.28190625
254	0x3dc0b458	0.09409398
255	0xbe17093f	-0.14749621

fc1.bias f4 [16]
0	0x3eb01a3b	0.34395012
1	0xbfb2ed22	-1.3978617
2	0xbfb36724	-1.4015851
3	0x3f270684	0.6524432
4	0x3f40a407	0.75250286
5	0xbf7bca9f	-0.9835605
6	0xbf525732	-0.821643
7	0x3f06171b	0.52379006
8	0xbf6f0ffe	-0.9338378
9	0xbea5cbba	-0.32381994
10	0xbfda210f	-1.7041339
11	0xbecfaaf3	-0.4056011
12	0xbfcccc93	-1.5999931
13	0xbf67e6bd	-0.90586454
14	0xbcdd8fa8	-0.02704604
15	0x3f2e6b50	0.68132496

fc2.weight f4 [4, 16]
0	0xbebeda6d	-0.3727602
1	0xbeb6b41b	-0.35684285
2	0xbe518c5c	-0.20463699
3	0xbf37420b	-0.7158515
4	0xbef0da03	-0.4704133
5	0xbeb17298	-0.3465774
6	0xbe5175c0	-0.20455074
7	0xbe132d5c	-0.14372772
8	0xbebc144b	-0.36734232
9	0xbd43e9ef	-0.04783052
10	0x3dee1a4d	0.1162611
11	0xbe8ab1d9	-0.27088812
12	0x3e5662be	0.20936105
13	0xbd0fb7db	-0.035087448
14	0xbee290a4	-0.44250977
15	0xbf3a02c9	-0.726605
16	0xbf0214c3	-0.5081293
17	0xbdd7978e	-0.10526954
18	0x3da774bf	0.081765644
19	0xbef9d187	-0.4879267
20	0xbf67c05b	-0.90527886
21	0xbdf81774	-0.12113848
22	0xbe798160	-0.24365759
23	0xbf344ec4	-0.70432687
24	0xbc5e99e6	-0.013586497
25	0x3e8e7660	0.27824688
26	0x3e2d5b0c	0.16929263
27	0x3d8059ed	0.06267152
28	0x3ec2cbd7	0.38046142
29	0x3dd1a696	0.10236852
30	0xbddc8836	-0.10768168
31	0xbe88772e	-0.26653427
32	0xbe929380	-0.2862816
33	0xbe063731	-0.13106991
34	0xbd9ba0d8	-0.07599038
35	0xbf2ade42	-0.6674539
36	0xbf2eb63c	-0.6824682
37	0xbdac762f	-0.08420979
38	0xbde962b2	-0.11395778
39	0xbe4dad55	-0.20085652
40	0xbe13a744	-0.14419276
41	0xbc7cd64b	-0.015431951
42	0xbe2dd9b0	-0.16977572
43	0x3e316efa	0.1732749
44	0x3d4dbb3b	0.050227385
45	0x3defcc38	0.117088735
46	0xbf1da099	-0.6157318
47	0xbeca6a21	-0.39534095
48	0xbf25636f	-0.6460485
49	0xbe2bf126	-0.1679121
50	0xbddd87f9	-0.1081695
51	0xbeeda67b	-0.46416077
52	0xbedf7637	-0.43644878
53	0xbe380115	-0.17969163
54	0xbdc5665d	-0.09638665
55	0xbf16ec46	-0.58954275
56	0x3cbbc70e	0.022922065
57	0xbe22bbaf	-0.15891908
58	0x3ec030b4	0.37537158
59	0xbf00780e	-0.5018319
60	0x3d3c95ae	0.046041183
61	0xbe8ba2a8	-0.27272534
62	0x3df57a30	0.11986196
63	0xbee37ba8	-0.4443028

fc2.bias f4 [4]
0	0xbf75a04b	-0.9594771
1	0xbf173206	-0.59060705
2	0xbf364e1a	-0.71212924
3	0xbeff0220	-0.4980631
