CIS522/model/linear-cpu.pth (torch, 7071 bytes, 4 tensors)

linear1.weight f4 [128, 6]
0	0x3e0f9d2d	0.14024802
1	0x3ea59877	0.32342884
2	0xbfce6011	-1.6123067
3	0x3e5bb58a	0.2145597
4	0xbe35b59b	-0.17745058
5	0xbe85ef6c	-0.26159227
6	0x3fdd4588	1.7286844
7	0x3e8bdd60	0.27317333
8	0x3d812b71	0.06307114
9	0x3ebc24bf	0.36746785
10	0xbe0d2eb0	-0.13787341
11	0xbcdb7077	-0.026787026
12	0xbf44ea58	-0.7692008
13	0xbdcbfc5f	-0.09960245
14	0xbd46ccbc	-0.048535094
15	0xbcc6da19	-0.024273919
16	0xbd4cc824	-0.049995556
17	0xbc3c1e36	-0.011481812
18	0xbfa1ace6	-1.263089
19	0xbefe37a0	-0.49651814
20	0xc00b1c78	-2.1736126
21	0x3dfee526	0.1244605
22	0xbd6512c8	-0.055926114
23	0x3f0cf6ea	0.5506426
24	0xbdffd926	-0.1249259
25	0xbd29173b	-0.04128192
26	0xbed7fafb	-0.4218367
27	0xbede97d2	-0.43475205
28	0xbcb1e32f	-0.021714775
29	0xbe8a3df3	-0.27000389
30	0x3e0c59c0	0.13706112
31	0xbeb3170a	-0.34978515
32	0xbcd57e60	-0.026061237
33	0x3e0dbe6c	0.13842171
34	0x3c92c371	0.01791546
35	0xbd33ea2f	-0.043924507
36	0x400d18c0	2.2046356
37	0x3f26a1f4	0.6509087
38	0x3eeb3688	0.45940042
39	0x3f58b51b	0.84651345
40	0xbf1a8b5b	-0.6036889
41	0xbe24c98b	-0.16092508
42	0xc05a12e8	-3.407404
43	0x3ee3e9c0	0.44514275
44	0x3f248cfb	0.6427762
45	0x3ee8bf7b	0.45458588
46	0xbe6c3000	-0.23065186
47	0xbf2fab1b	-0.6862046
48	0xbd4a7ad4	-0.049433544
49	0xbd28e847	-0.041237142
50	0xbfac7f93	-1.3476433
51	0x3d3a2529	0.045445595
52	0x3f768cba	0.9630848
53	0xbe81de20	-0.2536478
54	0x3d4e7c63	0.050411593
55	0x3e174f8d	0.1477644
56	0xbe3055e7	-0.17220269
57	0x3e142c36	0.1446999
58	0x3ddcfbb9	0.107902
59	0x3dec206f	0.11529624
60	0xbf65f77b	-0.8983075
61	0xbee9822d	-0.4560713
62	0xbe1fa2f9	-0.15589513
63	0xbc3fe298	-0.011711739
64	0x3db99b0d	0.09062777
65	0x3e6eb7e7	0.2331234
66	0x3f5a2be4	0.8522322
67	0xbf77fc99	-0.9686981
68	0xbf40e83a	-0.7535435
69	0xbf869041	-1.0512773
70	0x3e024c33	0.1272438
71	0x3e402b1e	0.18766448
72	0xbee418e8	-0.44550252
73	0xbe7e5df7	-0.24840532
74	0x3e3dd366	0.18537673
75	0xbdf1e41b	-0.11811086
76	0x3bc7769d	0.006087138
77	0xbd6ccd61	-0.057813052
78	0x3e81da89	0.25362042
79	0xbfa192e1	-1.2622949
80	0x3e2d15e1	0.16902877
81	0x3c92e390	0.017930776
82	0xbdf354ab	-0.118813835
83	0xbc8ab6f0	-0.016932935
84	0x3c073b79	0.0082539255
85	0x3e29b222	0.16571859
86	0xbf274640	-0.6534157
87	0xbf7ef65b	-0.9959466
88	0xbdd88398	-0.105719745
89	0xbee41626	-0.44548148
90	0x3d3b3d3a	0.045712687
91	0xbf3c5865	-0.7357238
92	0xbdf96ad1	-0.12178577
93	0xbdc14a18	-0.094379604
94	0xbe268e59	-0.16265239
95	0xbc40e944	-0.011774365
96	0x3d98c8a3	0.074601434
97	0x3c609554	0.013707478
98	0xbe90c237	-0.28273174
99	0xbf1a3682	-0.6023942
100	0x3e36c157	0.17847191
101	0xbe889c96	-0.26681966
102	0xbde52f7d	-0.11190698
103	0x3f13837c	0.57622504
104	0xc0126773	-2.287564
105	0x3daffc8f	0.085930936
106	0xc01b1876	-2.423368
107	0xbea3efe4	-0.3201896
108	0xbe7c50d9	-0.24640216
109	0x3fe12aa8	1.7591143
110	0x3f4a794a	0.7909132
111	0xbf430fe6	-0.76196134
112	0x3eea7338	0.4579103
113	0xbeae27e8	-0.3401482
114	0x3f76ddbe	0.964321
115	0x3ff50318	1.9141569
116	0x3fa6f99e	1.3044927
117	0x3fb645f8	1.4240103
118	0xbf027531	-0.5096007
119	0x3f0e5fa1	0.5561467
120	0xbec77503	-0.3895646
121	0xbe02177e	-0.12704274
122	0xbcd0a7f0	-0.025470704
123	0xbe4e04dc	-0.20119041
124	0x3e6b7954	0.22995502
125	0x3bef30c0	0.0072995126
126	0x3ee71e0b	0.45140108
127	0xbe436748	-0.19082367
128	0x3e677cfa	0.22606269
129	0xbfee0b06	-1.8597114
130	0x3f10f898	0.56629324
131	0xbc619dd6	-0.013770541
132	0xbfe81f52	-1.8134558
133	0x3e740e14	0.23833495
134	0x3f7290a1	0.94751936
135	0xbf1a385c	-0.6024225
136	0xbd82edcc	-0.063930124
137	0xbdfa5637	-0.122234754
138	0x3d135102	0.035965927
139	0xbe7e329d	-0.24823995
140	0xbe37e630	-0.17958903
141	0xbe961b82	-0.29317862
142	0xbd617243	-0.05504061
143	0x3d8c166e	0.068402156
144	0x3e590222	0.2119222
145	0x3f7be302	0.9839326
146	0xbe84f2c8	-0.25966477
147	0x3ea1577b	0.31512055
148	0xbcc29410	-0.023752242
149	0xbe08b104	-0.13348776
150	0xbf910f7f	-1.1332854
151	0xbf7bcce7	-0.9835953
152	0x3dbab221	0.09116007
153	0xbec50476	-0.38479966
154	0xbe43f3a0	-0.19135904
155	0xbe7e4296	-0.24830088
156	0xbec6e791	-0.38848546
157	0xbe635d8f	-0.22203659
158	0xbe883320	-0.26601505
159	0xbeb54733	-0.35405883
160	0xbe23a9b1	-0.15982701
161	0x3e3816f0	0.179775
162	0x3faec0c0	1.3652573
163	0x3ffd6b2c	1.9798331
164	0x3f66adb7	0.9010882
165	0x3fc58ea4	1.5434155
166	0x3ea1e7a2	0.31622034
167	0x3db4681e	0.08808921
168	0x3fc4d154	1.5376382
169	0xbaaf48a9	-0.0013373095
170	0xbf9ff039	-1.2495185
171	0x3dce12b6	0.100621626
172	0xbf948de0	-1.1605797
173	0x3ea360d0	0.319098
174	0xbf20c10b	-0.6279456
175	0xbf3cf88d	-0.7381676
176	0xbe85cff1	-0.2613521
177	0xbe3c7c7d	-0.18406864
178	0x3dd65a43	0.10466435
179	0x3e96b467	0.2943451
180	0xbf3bea2f	-0.7340421
181	0xbe5afd55	-0.21385701
182	0x3ddfb172	0.10922517
183	0xbddb8ef4	-0.107206255
184	0xbc3ebc6f	-0.011641606
185	0x3e0191ca	0.1265327
186	0xbf13ba6c	-0.5770633
187	0xbf3450dc	-0.7043588
188	0x3d4ab8d5	0.049492676
189	0xc0002168	-2.002039
190	0xbe98923c	-0.29799068
191	0x3f2b2fb7	0.6686968
192	0xbf751c4e	-0.95746315
193	0x3efa8412	0.48928887
194	0x3e604b64	0.21903759
195	0xbff7c43f	-1.9356765
196	0x3f005a8f	0.5013818
197	0xbed066a9	-0.40703323
198	0x3e6ce75e	0.23135135
199	0xbf196323	-0.59916896
200	0x3b0249ef	0.0019880494
201	0xbe85557d	-0.26041785
202	0xbf085694	-0.5325711
203	0x3e716d45	0.2357684
204	0x3fa67bb3	1.30065
205	0x3fed58f8	1.8542776
206	0x3fcc183d	1.5944897
207	0x3fdad172	1.7095168
208	0xbd3d895c	-0.046273574
209	0x3d84911e	0.064729914
210	0xbf1de977	-0.61684364
211	0xbeb0e0fc	-0.3454665
212	0x3dddb24c	0.10825023
213	0x3fe10c56	1.758189
214	0x3f65cb37	0.89763206
215	0x3de673f1	0.11252583
216	0x3e3b0946	0.18265256
217	0xc0555f6d	-3.3339493
218	0x3ee82392	0.45339638
219	0x3f67d405	0.9055789
220	0xbd987ef4	-0.074460894
221	0x3ff02f2d	1.8764397
222	0xbe196b48	-0.14982331
223	0x3d2ee861	0.042702083
224	0xbf1ec44c	-0.62018275
225	0xbf246347	-0.64213985
226	0xbc4e8ecf	-0.01260729
227	0xbd6ef01e	-0.058334462
228	0xbe0c87a4	-0.13723618
229	0xbeae79d7	-0.3407733
230	0xbe8eb1c8	-0.2787001
231	0xbe6b145b	-0.22956984
232	0x3de1c378	0.11023611
233	0xbea53f78	-0.32274985
234	0x3f18327d	0.5945204
235	0xbe95fd62	-0.29294878
236	0xbe0da9fd	-0.13834377
237	0xc02e2b83	-2.7214057
238	0x400e4c7b	2.223418
239	0xbe98c804	-0.298401
240	0x3f85060e	1.0392473
241	0x3ebc81e2	0.36817843
242	0x3f2e1de8	0.68014383
243	0x3fa10dcf	1.2582339
244	0xbd44e880	-0.04807329
245	0xbe112b2f	-0.1417663
246	0x3e746f6a	0.23870626
247	0x3e8542e3	0.26027593
248	0xba9a235f	-0.0011759809
249	0xbf11a6eb	-0.5689532
250	0x3e46d926	0.19418773
251	0xbd441de8	-0.047880083
252	0xbd58d87b	-0.052940827
253	0xbdd8fe72	-0.105954066
254	0x3f29232a	0.6606928
255	0xbfbc6e87	-1.472123

linear1.bias f4 [128]
0	0xbfa516fa	-1.2897637
1	0xbfaa2be2	-1.3294642
2	0xbeca3b21	-0.39498237
3	0xbde40e58	-0.11135548
4	0xbee3d7c8	-0.44500566
5	0xbed95f0d	-0.4245533
6	0xbfcf5eca	-1.6200802
7	0x3e79df56	0.24401602
8	0xbf9fb456	-1.2476909
9	0xbf2704eb	-0.6524188
10	0xbee010d1	-0.4376283
11	0xbf89073d	-1.0705334
12	0xbecebe93	-0.40379772
13	0xbf9cc4f0	-1.22476
14	0xbf3c67f8	-0.73596144
15	0xbec76b2f	-0.38948962
16	0xbf1311f4	-0.5744927
17	0x3e520986	0.20511445
18	0xbf8990f3	-1.074736
19	0xbffbb11e	-1.9663427
20	0xbe9b3d58	-0.3032024
21	0xbfa511e1	-1.2896081
22	0xbf99f602	-1.2028201
23	0xbefa3dcd	-0.48875275
24	0xbfe596f8	-1.7936697
25	0xbf124e13	-0.5715038
26	0xbe109ebe	-0.14123055
27	0xc011de2d	-2.2791855
28	0x3dbb7d0c	0.0915471
29	0xbec16dec	-0.37779176
30	0xbebf8b1d	-0.37410823
31	0xbf129419	-0.5725723
32	0xbf974caa	-1.1820271
33	0xbf92bde9	-1.1464206
34	0xbfe415c6	-1.7819145
35	0xbf703461	-0.93829924
36	0xbf2a74d7	-0.66584533
37	0xbf11705c	-0.5681207
38	0xbe9e98f8	-0.3097608
39	0xbe8f3cfc	-0.27976215
40	0xbfffbca3	-1.9979442
41	0xbf66f6af	-0.9022016
42	0xbf8b5dd5	-1.088801
43	0x3fa4a1fe	1.2861936
44	0x3e1ef316	0.15522417
45	0xbed763a0	-0.42068195
46	0xbf8dcbd7	-1.1077832
47	0xbed9c659	-0.4253414
48	0xbeb5a879	-0.35480097
49	0xbfef4f65	-1.8696104
50	0xc005e8ad	-2.0923264
51	0xbe7492cb	-0.23884122
52	0xbf25b437	-0.6472811
53	0xbe976d63	-0.29575643
54	0xbf8d108b	-1.1020674
55	0xbf40daff	-0.7533416
56	0xbe966f51	-0.29381803
57	0xbfcbbb0f	-1.5916461
58	0x3e0cdcf9	0.1375617
59	0xbfeb9a96	-1.8406551
60	0xbfa4829c	-1.2852359
61	0xbeb15da7	-0.34641764
62	0xbf912ad4	-1.1341195
63	0xbf552194	-0.8325436
64	0xbf0d9f71	-0.55321413
65	0xbeddd786	-0.43328494
66	0xbf5089ba	-0.81460154
67	0xbf5b0cb8	-0.8556628
68	0xbeb1ec64	-0.34750664
69	0xbf2c7995	-0.6737302
70	0xbfde5c1a	-1.7371857
71	0x3ee71b4b	0.4513801
72	0xbf63a955	-0.88930255
73	0xbe7f2b49	-0.24918856
74	0xc00d8658	-2.2113247
75	0xc01002f9	-2.2501814
76	0xbf3f0ede	-0.7463206
77	0xbf475184	-0.7785876
78	0xbe21fbbd	-0.15818687
79	0xbfdce47e	-1.725723
80	0xbe781004	-0.2422486
81	0x3f2a9d4b	0.6664626
82	0xbf199edc	-0.60008025
83	0xbeb7bc40	-0.3588581
84	0xbe92d609	-0.2867892
85	0x3dbe20bc	0.09283587
86	0x3cb9c40e	0.022676494
87	0xc025640b	-2.5842311
88	0xbf09446d	-0.53620034
89	0xbe3f89e0	-0.18704939
90	0xbdad442d	-0.08460269
91	0xbf41f027	-0.7575707
92	0xbf7f662c	-0.99765277
93	0xbf8d5d74	-1.1044145
94	0xbfdf7ecd	-1.7460572
95	0xbf84ea0e	-1.0383928
96	0xbd654c30	-0.05598086
97	0xbea5a976	-0.3235585
98	0x3f895572	1.0729201
99	0xbf215e9c	-0.6303499
100	0xbfeffa56	-1.8748271
101	0xbfb84a27	-1.439763
102	0xbee3c0d0	-0.44483042
103	0xbe8a2f12	-0.26989037
104	0x3e7cbd5c	0.2468161
105	0x3e1648c2	0.14676192
106	0xc01443d4	-2.31664
107	0xbf857b83	-1.0428318
108	0xbe81d0d2	-0.2535463
109	0xbf2ff668	-0.6873536
110	0xbfe35d97	-1.7762936
111	0xbecf1cd5	-0.40451685
112	0x3f97d97a	1.1863244
113	0xc004f6df	-2.0775678
114	0xbf7f51a8	-0.9973397
115	0xbecf65cf	-0.4050736
116	0xbef87ad1	-0.485312
117	0xbfe81fe0	-1.8134727
118	0xbf273f8b	-0.65331334
119	0xbf37e575	-0.718345
120	0x3e2da398	0.16956937
121	0xbf8e91e5	-1.1138273
122	0xbfab59be	-1.3386762
123	0xbf27ca22	-0.65542805
124	0xbfbfca37	-1.4983586
125	0xbebfa9a3	-0.3743411
126	0xbfdb6074	-1.713881
127	0xbff65563	-1.9244808

linear2.weight f4 [4, 128]
0	0x3e1772f1	0.1478994
1	0xc0031e98	-2.0487423
2	0x3e963af5	0.29341856
3	0x3f0cd6d6	0.55015314
4	0x3e23c234	0.15992051
5	0xbda18220	-0.078861475
6	0xc00c2013	-2.1894577
7	0x3f8abc91	1.0838796
8	0xbe400190	-0.18750596
9	0xbd9d01ec	-0.07666382
10	0x3e7ca059	0.24670543
11	0xbfe10cc9	-1.7582027
12	0x3b3799f4	0.0028015347
13	0xbc626f8c	-0.01382054
14	0x3e2c9d87	0.16856967
15	0x3e03e3cb	0.12879865
16	0xbe607e55	-0.21923192
17	0x3dced23f	0.10098695
18	0x3d489048	0.048965722
19	0xbf264915	-0.64955264
20	0x3c6b72f8	0.014370672
21	0xbf957109	-1.167512
22	0x3e5182bf	0.20460032
23	0xbcc0a15c	-0.023514442
24	0xbe925961	-0.28583816
25	0xbd16a49a	-0.03677807
26	0x3d81e721	0.063429125
27	0xbf40265a	-0.7505852
28	0xbff5e0e6	-1.9209259
29	0x3e4a755c	0.19771332
30	0x3e0f5a63	0.13999324
31	0x3f5d1f2a	0.8637568
32	0x3d3cb69c	0.046072587
33	0xbe044c16	-0.1291965
34	0xbf40fe26	-0.753878
35	0x3f07586c	0.52869296
36	0xbf52228d	-0.8208397
37	0x3e54dc32	0.20787123
38	0x3d80461b	0.062633716
39	0xbf98e7a6	-1.1945693
40	0xbf6a6ed7	-0.9157538
41	0xbe401bb1	-0.18760563
42	0xbeda8ac2	-0.4268399
43	0x3f1abc6d	0.60443765
44	0xc03ede75	-2.9823277
45	0xbf86ac80	-1.0521393
46	0xbf727945	-0.9471629
47	0xbd4b5951	-0.049645726
48	0x3f39e403	0.72613543
49	0x3ed0a872	0.40753514
50	0xbf910f03	-1.1332706
51	0xbdbf8f15	-0.093534626
52	0xbd3e1203	-0.046403896
53	0xbe874928	-0.26423
54	0x3f3ba6e5	0.73301536
55	0xbe83ced7	-0.25743744
56	0x3dc46275	0.09589092
57	0xbec9601f	-0.39331147
58	0x3dbe8d14	0.09304252
59	0xbf0795bf	-0.5296287
60	0xbed9f209	-0.4256747
61	0x3c5b9b10	0.013403669
62	0xbf264fce	-0.6496552
63	0xbd1ccc24	-0.03828062
64	0x3e361e14	0.17784911
65	0x3f1d2427	0.6138329
66	0xbf6b2cdb	-0.9186532
67	0xbdae4b7a	-0.0851049
68	0xbd3fd3ae	-0.046832733
69	0x3c12cbbe	0.008959709
70	0xbda2c238	-0.079472005
71	0x3d6b4614	0.05743988
72	0xbecb0a94	-0.39656508
73	0x3db5e228	0.088810265
74	0xbf6a0b54	-0.91423535
75	0xbf07cb87	-0.53044933
76	0xbfe6fadb	-1.8045305
77	0xbe0b268f	-0.13588928
78	0xbe08dc94	-0.13365394
79	0xbfda6c63	-1.7064327
80	0xbd69e47c	-0.057102665
81	0x3fc864e0	1.5655785
82	0x3c80b653	0.015711939
83	0xbd3989dd	-0.045297492
84	0x3e90b52d	0.28263226
85	0x3e3df59c	0.18550724
86	0x3e9915d4	0.29899466
87	0xbf759c7b	-0.95941895
88	0xbd4ceb8a	-0.050029315
89	0x3dcab92f	0.09898602
90	0x3ef2d573	0.47428474
91	0x3e8505cf	0.25980994
92	0x3ea640c5	0.3247129
93	0xbebbf51e	-0.36710447
94	0xbf333e39	-0.7001682
95	0xbe149273	-0.14508991
96	0xbc9a0464	-0.018800922
97	0xbd50fcbc	-0.051022276
98	0x3f88b3d8	1.0679884
99	0xbe653cd5	-0.22386487
100	0xbecd39cd	-0.4008316
101	0xbe1ed0e1	-0.15509368
102	0x3dc60618	0.09669131
103	0x3e616543	0.22011285
104	0xbdfcb807	-0.12339788
105	0x3ff1b246	1.888253
106	0xbeb7e80e	-0.3591923
107	0x3f57cbc1	0.8429528
108	0x3e8a0a1f	0.26960847
109	0xbea08ad4	-0.31355917
110	0x3e2e36f1	0.17013146
111	0x3e215715	0.15755875
112	0x3f9b0eae	1.2113855
113	0xbd5aeee3	-0.053450476
114	0xbd80b1dd	-0.06283925
115	0xbe309a3a	-0.17246333
116	0x3bf1aeac	0.007375559
117	0xbfc068a9	-1.503194
118	0x3eee22bb	0.46510872
119	0x3d8a132f	0.0674194
120	0x3efea88a	0.4973796
121	0x3dd42220	0.10358071
122	0xbf046c89	-0.5172811
123	0xbdfba515	-0.12287346
124	0x3dd12a46	0.10213141
125	0x3d069d38	0.03286478
126	0xbf182879	-0.59436756
127	0xbc84d5a6	-0.016215157
128	0xbf0ccdbd	-0.5500143
129	0xbdff30e3	-0.12460496
130	0x3d4b2a75	0.049601037
131	0x3f7de40b	0.9917609
132	0x3d1bd7f2	0.03804774
133	0xbd52b7f6	-0.05144497
134	0xbe97cf02	-0.29650122
135	0xbeca5253	-0.39515933
136	0x3f310be4	0.6915877
137	0xbc254fe2	-0.010089846
138	0xbe8e4085	-0.277836
139	0x3ed60a65	0.41804805
140	0xbdaaecb0	-0.08345926
141	0x3eb5fc52	0.35544068
142	0xbec5c06a	-0.38623363
143	0x3c46ebae	0.012141151
144	0xbeb299b9	-0.34882906
145	0xc0022a30	-2.033825
146	0xbfb97b96	-1.449084
147	0xbf8693cc	-1.0513854
148	0x3da69885	0.081345595
149	0x3bcbcf42	0.0062197754
150	0x3d8ea943	0.06965878
151	0xbd98b2fd	-0.07456014
152	0xbf8c7e08	-1.0975962
153	0xbd66313d	-0.0561993
154	0xbcd52d47	-0.026022566
155	0xbf77f093	-0.9685146
156	0x3ddfcafa	0.109273866
157	0xbe6a5794	-0.22884971
158	0x3c9a31d1	0.018822582
159	0x3e5426a0	0.2071786
160	0xbe2179da	-0.15769139
161	0xbaed7ad8	-0.0018118275
162	0xbf8b23d5	-1.087031
163	0x3dc9b271	0.09848488
164	0x3fac8f82	1.3481295
165	0xbce900f2	-0.028442834
166	0x3d0a5d88	0.033780605
167	0xbedb19b4	-0.42793047
168	0xbdf2ad58	-0.11849469
169	0xbdccb88a	-0.099961355
170	0x3e9655e9	0.2936242
171	0xbf97bdfb	-1.1854852
172	0x3e2f854c	0.17140692
173	0x3f7915c4	0.97298837
174	0xbffb4848	-1.9631433
175	0xbd436a92	-0.047709055
176	0xbed0021e	-0.40626615
177	0xbf28cb34	-0.65935063
178	0xbfc426fc	-1.5324397
179	0x39f39587	0.00046459978
180	0x3dd9d758	0.10636777
181	0xbd69f92b	-0.05712239
182	0xbf6f64c4	-0.9351313
183	0xbe593f5e	-0.21215579
184	0xbe6bb8d1	-0.2301972
185	0xc00aa23d	-2.1661522
186	0x3e3b51f7	0.18292986
187	0xbe0a20fc	-0.13489145
188	0xbd4d76bf	-0.050162073
189	0xbbbb8a80	-0.0057232976
190	0x3e731ccc	0.23741454
191	0x3f1e106f	0.61743826
192	0xbe0a8e1c	-0.13530773
193	0xbe58f923	-0.21188788
194	0x3ea27463	0.3172942
195	0xbec601cf	-0.38673255
196	0xbd5f998c	-0.054589793
197	0xbd8efa22	-0.06981303
198	0xbf2d9088	-0.6779866
199	0x3f38bb0e	0.7216042
200	0xbeb4ee55	-0.35338083
201	0xbe3b6736	-0.1830109
202	0xbf0f4456	-0.5596365
203	0xbf9d3511	-1.228182
204	0xbebb14c0	-0.36539268
205	0xbe53b567	-0.20674668
206	0x3ecbb71c	0.3978814
207	0xbeb0e04c	-0.34546125
208	0xbce6a29e	-0.028153714
209	0x3f07da0a	0.53067076
210	0xbe3aa788	-0.1822797
211	0xbd237b1c	-0.039912328
212	0x3f026758	0.5093894
213	0x3e2e64b2	0.170306
214	0x3d6e2790	0.0581432
215	0xbf5c225d	-0.85989934
216	0x3d9b8cb8	0.07595199
217	0x3cc0aa06	0.023518573
218	0xbe5e6d7a	-0.2172145
219	0x3d5111b4	0.051042274
220	0xbf7f2f31	-0.99681383
221	0xbf1b6382	-0.6069871
222	0xbe7f02d9	-0.2490343
223	0xbdbf5334	-0.093420416
224	0x3b6e7180	0.003638357
225	0x3dd7c60c	0.10535821
226	0x3fd2ed19	1.6478606
227	0x3ce6f86e	0.028194632
228	0xbf88f36b	-1.0699285
229	0xbf274511	-0.6533976
230	0xbbd33710	-0.006445773
231	0xbb2007e9	-0.0024418777
232	0x3f8474f4	1.0348191
233	0x3f9679a8	1.1755877
234	0xbf325815	-0.6966565
235	0x3f1fa91f	0.62367433
236	0x3f8dffbc	1.1093669
237	0x3cc01326	0.02344663
238	0xbf824c33	-1.0179504
239	0x3d2b15fc	0.041769013
240	0x3f9f46e7	1.2443513
241	0xbf197624	-0.59945893
242	0xbdc2e958	-0.09517163
243	0x3da26b03	0.07930567
244	0xbcbec32b	-0.023286423
245	0xbf24e977	-0.6441874
246	0x3eb0f9cc	0.3456558
247	0x3c8b2737	0.016986473
248	0x3e30f71d	0.17281766
249	0xbe45f468	-0.19331515
250	0x3df5cee0	0.12002349
251	0xbddd3dd9	-0.10802812
252	0xbe40d603	-0.18831639
253	0xbd6df7bc	-0.058097586
254	0xbd710ef5	-0.058852155
255	0xbf8608c9	-1.0471431

linear2.bias f4 [4]
0	0x3ed9fe86	0.42576998
1	0x3f0c82ce	0.5488709
2	0x3e951332	0.29116207
3	0x3e4e6028	0.20153868
