CIS522/model/test.pth (torch, 8095 bytes, 4 tensors)

linear1.weight f4 [128, 8]
0.2670915 -0.037066605 0.020832434 0.020403229 -0.024111073 0.3244913 0.16970567 -0.08843994
0.21315585 0.11346646 0.008553108 -0.21544935 -0.08350173 -0.14738116 0.30106157 0.15676709
0.19565779 -0.30265972 0.20897591 -0.22850187 0.34619364 -0.0812235 0.3107797 -0.07727401
0.27838936 0.17170289 0.2338616 -0.30890378 0.14857659 -0.2986156 -0.28866515 -0.09004569
0.2487484 -0.35493293 0.2467462 -0.3055597 0.064377524 0.15831485 -0.10999878 -0.01104737
0.15634893 0.13756526 -0.008219223 -0.1732723 -0.07163127 -0.3555409 0.0036891866 0.25860143
0.1493939 -0.028423479 0.23452207 -0.12184824 0.44830462 0.0311491 0.1788943 -0.09944152
0.32637873 0.34089354 -0.04737103 -0.15748297 0.22698519 -0.22400506 0.091351956 0.27317503
0.07359168 -0.29563764 0.20483038 -0.079613864 -0.321556 -0.32825667 -0.23950675 0.009340614
0.2919208 0.13171653 -0.3467125 0.19119139 -0.0053349785 0.21793912 0.11281982 0.18464097
0.03119395 0.23053278 -0.2172773 -0.1160917 -0.22582822 0.21212839 0.15358433 -0.22290394
-0.28287536 -0.17416924 0.1070959 0.18785945 -0.0535056 -0.08386326 -0.1328657 0.068665266
-0.008868873 0.04021442 0.08856854 -0.28052154 -0.020741105 -0.31641704 0.19087091 0.0599308
0.0844396 0.013755849 -0.1749606 0.21907781 0.42060837 0.15616988 -0.23093964 -0.191932
0.17153342 -0.20902646 -0.1314318 -0.04740284 -0.2543253 0.18864201 0.13115738 0.09396015
0.028214034 0.10237335 0.28502703 -0.31637242 0.35343346 -0.03543459 0.07640879 0.007507539
0.04929869 0.15729128 -0.046899054 0.2754191 -0.114885084 0.1359228 -0.09908074 -0.2891983
0.058774985 -0.26736403 0.15260573 0.09676711 0.36714387 0.25390118 0.28595302 -0.062264323
0.33662137 0.070080966 0.056941897 -0.056503803 -0.12701951 -0.2729427 -0.1822498 -0.009330988
0.058736905 -0.014011509 0.15528692 0.28428838 0.0765594 -0.0099295825 -0.16080657 -0.09108091
0.27658638 -0.046682358 -0.16821578 0.30024114 -0.28242004 -0.347757 0.020734519 -0.014771163
0.23204097 0.12051511 -0.09614354 -0.24005201 -0.25610974 -0.1345115 -0.2190018 -0.13004802
0.29145375 -0.0066767097 -0.18557955 0.23307967 0.1384798 0.16679917 0.026641022 0.24904196
-0.33792356 -0.12836704 0.08410272 -0.050432086 0.16329846 -0.31588975 0.013104647 0.007487893
-0.28550237 0.226107 -0.08831425 0.37130648 -0.21650179 0.24841115 -0.18775012 -0.20531327
0.15898077 -0.10214915 0.253064 -0.037321713 0.24838758 0.05409838 0.08853658 0.037921123
0.15910219 0.070609786 0.09099588 -0.014142607 0.16223334 -0.16561355 -0.09613575 0.15801768
-0.24119571 -0.08667601 0.16328296 0.095936626 0.0006069344 -0.04780035 -0.2048333 -0.37560305
-0.3755594 -0.2745867 0.19964999 0.17030245 -0.21632501 0.05763024 -0.30595827 0.010806348
-0.026646167 -0.22025184 -0.022336692 0.25061044 -0.3522592 -0.047287107 -0.23262367 0.12185985
-0.067952484 0.2503263 -0.07843247 0.25026533 0.093553156 -0.2926139 0.043979615 -0.3535259
0.1749033 -0.19621271 0.15407938 0.26218206 0.33320838 0.15608414 -0.06883267 -0.19140846
00000000: 38c0 883e 27d3 17bd c8a8 aa3c ac24 a73c
00000010: 9684 c5bc b923 a63e 53c7 2d3e 0020 b5bd
00000020: 8745 5a3e 1a61 e83d 5622 0c3c c19e 5cbe
00000030: f402 abbd 16eb 16be be24 9a3e 8d87 203e
00000040: 845a 483e 37f6 9abe c8fd 553e 65fc 69be
00000050: 4b40 b13e 8258 a6bd 841e 9f3e d641 9ebd
00000060: 0d89 8e3e e2d2 2f3e 6a79 6f3e a328 9ebe
00000070: 7624 183e 25e4 98be ebcb 93be e069 b8bd
00000080: e7b7 7e3e c5b9 b5be 09ab 7c3e 5272 9cbe
00000090: 5dd8 833d 4a1d 223e 0a47 e1bd 0700 35bc
000000a0: ef19 203e e8dd 0c3e eba9 06bc 4b6e 31be
000000b0: 6ab3 92bd 7509 b6be 48c6 713b 6867 843e
000000c0: b7fa 183e 5bd8 e8bc 8e26 703e 928b f9bd
000000d0: 2f88 e53e 662c ff3c 1130 373e ffa7 cbbd
000000e0: 1d1b a73e 9989 ae3e 2008 42bd 3743 21be
000000f0: ce6e 683e 9561 65be bc16 bb3d 99dd 8b3e
00000100: 3cb7 963d d15d 97be 0ebf 513e 980c a3bd
00000110: fda2 a4be 4211 a8be 4241 75be 6009 193c
00000120: a576 953e b3e0 063e 4d84 b1be adc7 433e
00000130: 0bd1 aebb 6f2b 5f3e 140e e73d 8612 3d3e
00000140: 748a ff3c c910 6c3e f17d 5ebe 7cc1 edbd
00000150: 833f 67be 2f38 593e 3645 1d3e ee40 64be
00000160: 0ad5 90be 6c59 32be 1855 db3d 3a5e 403e
00000170: b028 5bbd 80c0 abbd f20d 08be 60a0 8c3d
00000180: c04e 11bc e0b7 243d 6c63 b53d 85a0 8fbe
00000190: 40e9 a9bc 6a01 a2be aa73 433e 007a 753d
000001a0: abee ac3d 3660 613c df28 33be ef55 603e
000001b0: fb59 d73e ffea 1f3e 717b 6cbe d289 44be
000001c0: 75a6 2f3e 080b 56be 0f96 06be 7b29 42bd
000001d0: ed36 82be 5f2b 413e 1f4e 063e 2e6e c03d
000001e0: 1e21 e73c 1ea9 d13d 10ef 913e 91fb a1be
000001f0: 3bf5 b43e dc23 11bd 367c 9c3d cd01 f63b
00000200: 6ced 493d f710 213e 3919 40bd bb03 8d3e
00000210: df48 ebbd 592f 0b3e d8ea cabd cd11 94be
00000220: 0abe 703d f0e3 88be ad44 1c3e d62d c63d
00000230: 48fa bb3e 56ff 813e 6f68 923e e008 7fbd
00000240: a359 ac3e 9c86 8f3d e83b 693d 8870 67bd
00000250: 6711 02be 25bf 8bbe b19f 3abe 00e1 18bc
00000260: 1c96 703d 8790 65bc 8903 1f3e 3f8e 913e
00000270: 2dcb 9c3d b0af 22bc 7aaa 24be a188 babd
00000280: bb9c 8d3e 0036 3fbd c240 2cbe 35b9 993e
00000290: 5c99 90be 350d b2be 70db a93c c002 72bc
000002a0: 269c 6d3e a0d0 f63d e8e6 c4bd 32d0 75be
000002b0: d120 83be 62bd 09be 0242 60be 4f2b 05be
000002c0: 6d39 953e 4dc8 dabb 9108 3ebe 70ac 6e3e
000002d0: a6cd 0d3e 67cd 2a3e 463e da3c db04 7f3e
000002e0: 5104 adbe a672 03be 0c3e ac3d e091 4ebd
000002f0: b637 273e 4dbc a1be e0b4 563c 005d f53b
00000300: 5e2d 92be 9888 673e 1ade b4bd e21b be3e
00000310: a5b2 5dbe 7e5f 7e3e 9141 40be a43d 52be
00000320: dbcb 223e 9333 d1bd 9b91 813e a7de 18bd
00000330: 5059 7e3e 4396 5d3d ab52 b53d 2e53 1b3d
00000340: afeb 223e dd9b 903d 0c5c ba3d 65b6 67bc
00000350: 7f20 263e 9996 29be d2e2 c4bd 63cf 213e
00000360: 02fc 76be 3183 b1bd a633 273e 6c7a c43d
00000370: ae1a 1f3a 4dca 43bd d2bf 51be 0b4f c0be
00000380: 5249 c0be a196 8cbe 0c71 4c3e c463 2e3e
00000390: 4e84 5dbe b00d 6c3d 90a6 9cbe 1c0d 313c
000003a0: 1049 dabc b389 61be 70fb b6bc 0350 803e
000003b0: 515b b4be 20b0 41bd e634 6ebe a891 f93d
000003c0: ac2a 8bbd c52a 803e 34a1 a0bd c722 803e
000003d0: cc98 bf3d 7dd1 95be f823 343d 5901 b5be
000003e0: da19 333e fceb 48be fcc6 1d3e ba3c 863e
000003f0: 4a9a aa3e 85d4 1f3e 25f8 8cbd 9400 44be

linear1.bias f4 [128]
0.034693234 0.14884347 -0.1282809 -0.20883085 0.26882824 0.102460384 0.20356026 -0.07715136
-0.30644745 0.22943476 0.24776864 -0.18439162 -0.3461638 0.21226802 -0.074784026 -0.04061191
-0.33344987 -0.23275377 0.02995938 -0.23832268 -0.25070605 0.28381267 0.21772365 0.13571861
0.009721433 0.23745756 -0.38410604 0.14752065 -0.21676128 -0.14465755 0.14553598 -0.35685214
0.05347979 0.0108242035 -0.33116603 0.34620455 0.17713693 -0.23885033 0.3101615 0.08733584
-0.17355773 0.09928125 0.110301204 -0.052229065 -0.288952 -0.072904736 0.25259724 -0.14371352
0.047306847 -0.25397947 0.04624158 0.23424265 -0.103660926 -0.24383143 0.19363764 0.20824714
-0.31180978 0.1602451 0.16878459 0.30696842 0.25234637 0.3076057 0.16472083 -0.04260943
0.08030954 0.37993827 0.019158399 -0.19773464 0.21763556 -0.2028963 0.23802707 -0.13612339
-0.05908951 -0.3190868 0.09284666 0.025067165 0.20804173 0.30364117 0.31691393 -0.23620838
-0.08666298 0.21648607 -0.26876122 0.10516882 0.05563706 -0.09982613 -0.29867718 -0.30441308
-0.26627225 0.004827582 -0.46955046 0.042846017 0.02079299 0.41273996 0.067276835 -0.19955952
-0.018099526 0.28174675 -0.10834184 0.10872108 -0.28834954 0.13052297 -0.044706605 -0.34100673
0.20523068 -0.28911355 -0.3009865 -0.0033822358 -0.27265307 0.24252756 -0.19747822 -0.27819365
-0.14866887 0.23967138 0.051833034 0.10813918 0.07400205 -0.22071217 0.30858484 -0.07036653
-0.016283596 -0.11527546 -0.12757704 -0.17579696 0.26148006 0.25100362 0.22270957 0.11793864
00000000: 7e1a 0e3d 6c6a 183e 115c 03be c1d7 55be
00000010: dba3 893e c0d6 d13d 1a72 503e 8801 9ebd
00000020: aee6 9cbe f2f0 6a3e 10b7 7d3e 28d1 3cbe
00000030: 623c b1be ca5c 593e 5e28 99bd ad58 26bd
00000040: f1b9 aabe 0157 6ebe 606d f53c dc0a 74be
00000050: 8b5c 80be e54f 913e f3f2 5e3e d2f9 0a3e
00000060: a546 1f3c 1328 733e 8ca9 c4be a70f 173e
00000070: abf6 5dbe 1c21 14be 6207 153e 53b5 b6be
00000080: a00d 5b3d 0058 313c 988e a9be b941 b13e
00000090: 6263 353e 2e95 74be 7dcd 9e3e 22dd b23d
000000a0: 1eb9 31be f853 cb3d 99e5 e13d 25ee 55bd
000000b0: 84f1 93be 144f 95bd 6d54 813e a329 13be
000000c0: d3c4 413d 9909 82be d067 3d3d 4edd 6f3e
000000d0: 2e4c d4bd f2ae 79be f248 463e bd3e 553e
000000e0: 88a5 9fbe 4b17 243e ded5 2c3e f72a 9d3e
000000f0: 8b33 813e 7f7e 9d3e 94ac 283e 3a87 2ebd
00000100: 5479 a43d 4587 c23e 13f2 9c3c f37a 4abe
00000110: dbdb 5e3e 0cc4 4fbe 5ebd 733e ee63 0bbe
00000120: d807 72bd 585f a3be 6426 be3d a859 cd3c
00000130: e408 553e db76 9b3e 8b42 a23e 9ce0 71be
00000140: 5c7c b1bd 86ae 5d3e 129b 89be c062 d73d
00000150: b0e3 633d a471 ccbd 37ec 98be 08dc 9bbe
00000160: d654 88be b130 9e3b eb68 f0be 4e7f 2f3d
00000170: 1056 aa3c a752 d33e 70c8 893d 5559 4cbe
00000180: 7545 94bc 1c41 903e 54e2 ddbd 28a9 de3d
00000190: 8da2 93be d0a7 053e 461e 37bd 6f98 aebe
000001a0: fe27 523e b106 94be e71a 9abe 80a8 5dbb
000001b0: 2f99 8bbe 2559 783e bb37 4abe 666f 8ebe
000001c0: a73c 18be 6a6c 753e e04e 543d 1378 dd3d
000001d0: 638e 973d 5f02 62be d5fe 9d3e 541c 90bd
000001e0: 2d65 85bc 8a15 ecbd 8ea3 02be 1e04 34be
000001f0: b7e0 853e 8c83 803e fa0d 643e d089 f13d

linear2.weight f4 [4, 128]
0.09954177 -0.008598915 -0.0422084 0.030838437 0.09448555 0.044639178 0.011327705 -0.02485773
-0.024158299 0.021583268 0.047319505 -0.0143484175 0.009356059 0.02270944 0.056559317 0.040297944
0.037763912 -0.018418467 -0.0016181245 0.038115513 -0.043960594 0.06488653 0.005770988 -0.069167525
0.08783503 -0.03082462 -0.0077455263 -0.02290318 0.042068265 -0.059756547 -0.0016449913 0.039322536
-0.03134619 -0.010178044 -0.012487046 -0.0058660954 0.017850056 0.022033922 0.11347874 0.020672817
0.05216459 -0.067441024 0.053068362 0.038107213 0.02470702 -0.013281681 -0.002368696 0.0512188
0.1106542 -0.02630271 0.026470453 0.096711166 0.032054104 0.11454322 0.036888972 0.087117136
0.078719035 -0.010681643 -0.02835678 -0.009732768 -0.0500095 0.0127186775 -0.032787457 0.010962159
0.009324763 0.07760598 0.04159506 -0.032565016 0.004110438 0.08860936 -0.071891144 0.07995614
-0.061987676 0.0390798 0.036068518 0.06774156 -0.042471964 0.0778751 0.019736642 -0.014504649
0.039886616 -0.051246826 0.04645815 0.07348011 0.04289729 -0.084074564 0.040043853 0.034098517
-0.052574728 0.051234335 0.036407337 0.053304456 0.08531851 0.12888497 0.024246052 0.06285854
0.04712132 0.11445892 0.015488438 0.005050406 -0.02514934 0.09742403 0.014400918 0.09012173
0.025504366 -0.06355111 -0.0361091 0.03239973 0.010981918 0.039836433 -0.02769035 -0.048913367
-0.07960075 0.07871007 -0.016089201 -0.01073744 0.0006961571 0.022807345 0.082809515 -0.008495204
0.06828882 0.0808663 0.07564256 0.0007658223 -0.028201584 0.020999141 0.059534512 -0.015477292
0.06644273 0.07361279 0.027698305 0.06875167 0.08142169 0.008113285 -0.021093009 -0.006498173
-0.018083759 0.03145424 0.04697634 -0.07708261 0.0026484951 0.009520105 -0.0018602684 0.02038502
-0.045234185 0.09115233 -0.0009030178 0.014923111 0.03741192 -0.044024058 0.028606199 -0.02615017
0.07433509 0.0012069372 -0.012882638 -0.08359879 0.07706948 -0.018000863 -0.052612342 0.056809634
0.0035359114 0.035047285 -0.08322247 -0.037879333 -0.055192173 -0.011370152 -0.024419365 0.0063303676
-0.08450543 0.069323696 -0.0062376326 0.008547302 0.06482566 0.055279844 -0.065273196 0.06268389
0.085125245 -0.032825112 0.02960907 0.096958585 0.01630614 -0.041400798 0.01992527 0.028428504
0.08463424 0.008604273 0.051221736 0.055127002 0.0034636036 -0.0028668072 -0.037717246 -0.0023751897
0.07278927 0.05834036 0.059519064 0.08586301 -0.010898826 0.08046268 -0.08122906 0.09872725
0.015541218 0.06604698 0.06700872 0.08699388 -0.02392563 0.036163956 0.02309227 -0.06321649
0.03609003 -0.07470673 0.04566451 0.047721945 0.09362687 0.072137825 0.0076932088 -0.012842744
0.0052876994 0.057466023 0.023176087 0.027416853 0.016886622 0.1324935 -0.024153471 0.07489543
0.07589946 -0.03140629 -0.06692876 -0.031476054 0.007521358 0.09987596 -0.05487453 0.007561032
-0.0033499897 0.018194512 -0.04468722 0.06410984 -0.023865582 0.041204616 -0.06352484 -0.06192471
0.07076795 -0.07871341 0.06968262 -0.02602504 0.07191331 -0.026114967 0.00086476654 -0.03394663
-0.00070924714 0.019042134 0.008126333 -0.04714792 -0.049727485 -0.019434575 0.020680312 -0.062453717
00000000: 8edc cb3d 77e2 0cbc b7e2 2cbd e4a0 fc3c
00000010: a481 c13d 92d7 363d d797 393c 70a2 cbbc
00000020: a0e7 c5bc 65cf b03c 19d2 413d a015 6bbc
00000030: 284a 193c 2609 ba3c beaa 673d 750f 253d
00000040: 55ae 1a3d 53e2 96bc 4017 d4ba 031f 1c3d
00000050: 0610 34bd 3be3 843d 8e1a bd3b b4a7 8dbd
00000060: dae2 b33d ea83 fcbc 2fce fdbb 739f bbbc
00000070: c64f 2c3d 48c3 74bd c09c d7ba ab10 213d
00000080: dd64 00bd d0c1 26bc 7896 4cbc 6038 c0bb
00000090: 483a 923c 7c80 b43c 8b67 e83d 0a5a a93c
000000a0: 8aaa 553d 851e 8abd 365e 593d 4f16 1c3d
000000b0: 6066 ca3c 689b 59bc 203c 1bbb ceca 513d
000000c0: ab9e e23d c878 d7bc 90d8 d83c 8110 c63d
000000d0: 2a4b 033d a395 ea3d e418 173d 786a b23d
000000e0: 7237 a13d 0f02 2fbc 7a4c e8bc 3076 1fbc
000000f0: c3d6 4cbd 0062 503c 244c 06bd a19a 333c
00000100: e4c6 183c e2ef 9e3d 955f 2a3d e562 05bd
00000110: dab0 863b d378 b53d aa3b 93bd 0bc0 a33d
00000120: cae6 7dbd 2412 203d 95bc 133d 16bc 8a3d
00000130: 15f7 2dbd fb7c 9f3d bdae a13c e8a4 6dbc
00000140: 2660 233d 31e8 51bd e74a 3e3d bd7c 963d
00000150: 12b5 2f3d 492f acbd 0605 243d e3aa 0b3d
00000160: 9958 57bd 18db 513d dc1f 153d c655 5a3d
00000170: 79bb ae3d 6cfa 033e a89f c63c fabb 803d
00000180: 4902 413d 7069 ea3d 38c3 7d3c e07d a53b
00000190: fd05 cebc 4086 c73d d4f1 6b3c be91 b83d
000001a0: 88ee d03c 1627 82bd 23e7 13bd 94b5 043d
000001b0: 81ed 333c 872b 233d dfd6 e2bc 6259 48bd
000001c0: b805 a3bd bf32 a13d 80cd 83bc 16ec 2fbc
000001d0: 507e 363a 78d6 ba3c 0998 a93d 782f 0bbc
000001e0: 02db 8b3d 3b9d a53d 7dea 9a3d 77c1 483a
000001f0: 0207 e7bc 6406 ac3c 76da 733d 7894 7dbc
00000200: 2013 883d 4dc2 963d 8ee7 e23c adcd 8c3d
00000210: 6ac0 a63d 95ed 043c 3fcb acbc a0ee d4bb
00000220: 6424 94bc 29d6 003d 436a 403d 7ddd 9dbd
00000230: 6092 2d3b 37fa 1b3c 40d4 f3ba 7cfe a63c
00000240: 7b47 39bd 13ae ba3d 80b8 6cba 1080 743c
00000250: 3e3d 193d 9252 34bd 8c57 ea3c e238 d6bc
00000260: ff3c 983d 1832 9e3a b311 53bc d835 abbd
00000270: 9bd6 9d3d 8c76 93bc 0a80 57bd 38b1 683d
00000280: c0ba 673b be8d 0f3d 8b70 aabd 5c27 1bbd
00000290: 3011 62bd e049 3abc 1f0b c8bc f96e cf3b
000002a0: 2f11 adbd 95f9 8d3d 0e65 ccbb fc09 0c3c
000002b0: 51c3 843d 1e6d 623d f4ad 85bd 6960 803d
000002c0: 2556 ae3d a073 06bd b88e f23c 3992 c63d
000002d0: 7494 853c e293 29bd 523a a33c e5e2 e83c
000002e0: b754 ad3d f0f8 0c3c e2cd 513d dacc 613d
000002f0: a0fd 623b 0be1 3bbb 667d 1abd 12a9 1bbb
00000300: 8a12 953d 4df6 6e3d 43ca 733d f2d8 af3d
00000310: fd90 32bc 9ec9 a43d 6c5b a6bd 8331 ca3d
00000320: 98a0 7e3c a443 873d de3b 893d d929 b23d
00000330: afff c3bc a820 143d 002c bd3c a677 81bd
00000340: 24d3 133d d8ff 98bd b60a 3b3d 1678 433d
00000350: 72bf bf3d ffbc 933d 5017 fc3b 5f6a 52bc
00000360: 7044 ad3b 7e61 6b3d c7db bd3c 4f99 e03c
00000370: d055 8a3c 60ac 073e 80dd c5bc c662 993d
00000380: 2d71 9b3d e2a3 00bd f211 89bd 09ed 00bd
00000390: b975 f63b c48b cc3d 1dc4 60bd 89c2 f73b
000003a0: 808b 5bbb a80c 953c f209 37bd 054c 833d
000003b0: c181 c3bc 2cc6 283d 5019 82bd c4a4 7dbd
000003c0: c9ee 903d 7f34 a1bd c3b5 8e3d 7732 d5bc
000003d0: 4947 933d 0eef d5bc 80b1 623a 9f0b 0bbd
000003e0: c5ec 39ba 40fe 9b3c 5024 053c 2d1e 41bd
000003f0: 0caf 4bbd 4235 9fbc c269 a93c 78cf 7fbd

linear2.bias f4 [4]
0.03197308 0.029133761 0.05208646 0.09234728
00000000: 34f6 023d eda9 ee3c 9d58 553d 9220 bd3d
